gio_notebooks/treasury_REFINED_info/CNN_avg_rmse0.38323_cnn1_d1_e102/model.pt (torch, 23476 bytes, 5 tensors)

cnn_branch.0.weight f4 [16, 3, 3, 3]
000000 d1 1a 7a 3e ce c9 4e bd f6 41 7c bf 49 80 67 bf
       0.24424292 -0.050485425 -0.9853815 -0.9043012
000010 33 ac 1e bf ab 84 4b bf dc 67 1a c0 d8 75 b5 bf
       -0.61981505 -0.7949931 -2.412589 -1.4176588
000020 62 03 8d bf 1e f5 3d be 2f 71 1b bf d5 13 a0 bf
       -1.1016657 -0.18550536 -0.6071958 -1.2506052
000030 0d 65 27 3f 0c 9d 52 3f 14 f5 9b 3e 90 a6 00 3e
       0.65388566 0.82270885 0.30460417 0.12563539
000040 77 37 da 3d 6c a5 41 3f 2e 97 36 be 53 db 83 bf
       0.1065511 0.7564304 -0.17831108 -1.0301307
000050 fe b6 3b bf e7 2f 2c be 80 b7 28 bf c9 fb 07 3f
       -0.733261 -0.16815148 -0.65905 0.5311857
000060 38 39 0e 3f c6 51 a4 3e e7 ff 9c 3f 85 c9 97 bf
       0.5555606 0.32093638 1.2265595 -1.1858374
000070 e0 3a 0e c0 e6 42 f6 bf 9d 02 d1 bd f5 8a e4 bf
       -2.2223434 -1.9239166 -0.102055766 -1.7854906
000080 02 68 c4 bf a9 04 82 3e e6 c2 fd bf 3a 6d d1 bf
       -1.5344241 0.2539418 -1.9825103 -1.6361458
000090 dd c2 5c 3c b5 3e 3f c0 69 66 ca bf 8c af 85 be
       0.013474193 -2.9882023 -1.5812503 -0.26110494
0000a0 3c 4d 10 c0 50 ba 19 c0 4a 80 29 3f 9f 25 bb be
       -2.254714 -2.4019966 0.6621138 -0.3655214
0000b0 46 a3 23 be bc d0 48 3d 02 e8 b3 3f 11 c3 f3 3f
       -0.15980253 0.04902719 1.4055178 1.9043905
0000c0 1a e1 83 3f b1 d9 d7 3f 4d db 0f 40 45 84 b4 3f
       1.030307 1.6863309 2.24776 1.4102865
0000d0 44 a0 ca 3f 44 e9 09 40 3c 75 5a 3f 97 e9 08 3f
       1.5830159 2.1548624 0.85335135 0.5348143
0000e0 ac 2c 0e 3f 97 f2 96 3f 83 a3 7f 3f df 92 05 3f
       0.55536914 1.1792783 0.99858874 0.5217723
0000f0 24 d7 f8 3f b6 3c ba 3f 3c 86 44 3f 5e d5 ba bc
       1.9440656 1.4549778 0.76767325 -0.02280682
000100 c2 1d 54 3f 45 8d f7 3f d4 3d 33 3e b5 d9 f6 3e
       0.82857907 1.9339987 0.17504054 0.48212972
000110 dd 4c 86 3f 3c 07 0e 3f 7a 53 6c 3d ab 8f 80 bd
       1.0492207 0.5547979 0.057696797 -0.062774025
000120 0a d3 a5 bf e8 0a dd be 94 6d 3d 3d c7 2a 4b bf
       -1.2955029 -0.43172383 0.04624708 -0.7936215
000130 43 5e 03 bf 7f 45 95 be ba fd 71 3e 4f 86 ff 3c
       -0.51315707 -0.29154584 0.23631945 0.031191973
000140 5e ae a6 be 3c 0a 23 bf ab 9e 87 bf 6f 09 96 bf
       -0.32554907 -0.6368749 -1.0595297 -1.1721629
000150 79 76 a6 3c cb 73 a2 bd 9e e8 08 3e ab b2 ed be
       0.020320164 -0.07932242 0.13369986 -0.46425375
000160 e8 7f 08 3e 94 e3 28 3f dc a1 5a bf 6c d2 80 3f
       0.13330042 0.65972257 -0.8540323 1.0064216
000170 5f 34 f5 3f 5d 61 b0 3e 24 e5 d0 3d 37 0c be 3e
       1.9156607 0.34449282 0.10199955 0.37118694
000180 09 09 91 3e 23 8c f2 be 71 44 1f bf bb 2a c8 be
       0.28327206 -0.4737254 -0.6221381 -0.390951
000190 a4 97 c8 3f 9c a5 db 3f 79 e8 26 3f de 28 e2 3e
       1.5671277 1.7159915 0.65198475 0.44171804
0001a0 21 4a 40 bd d9 21 94 3f 30 62 7d 3d d0 f1 61 bf
       -0.046945695 1.157283 0.061861217 -0.882596
0001b0 f4 08 2f bf cd 59 a9 be 51 5f bc 3e 15 29 3f bf
       -0.68373036 -0.33076325 0.3679147 -0.7467206
0001c0 4a df 02 bf 67 1f 8d 3e b0 94 51 bf 30 0b 0f bf
       -0.5112196 0.2756302 -0.81867504 -0.55876446
0001d0 45 ec e3 be 31 46 80 be 48 fb 0b bf 54 07 54 bf
       -0.44516197 -0.25053552 -0.546803 -0.8282368
0001e0 0a 77 9f bf 50 47 17 bf 9b cf 2a bf a1 f8 c7 bf
       -1.2458203 -0.5909319 -0.6672303 -1.562275
0001f0 d5 b8 9c be 75 f8 3e be fc f5 42 3e 7e e3 39 3f
       -0.30609766 -0.18649466 0.19039148 0.7261275
000200 f1 fa 3b 3f ac c3 30 3f dc c0 82 3e 94 28 64 3e
       0.7342978 0.6904857 0.25537765 0.22281104
000210 81 38 8c 3f 24 da 9b be 85 4f 40 3d ec e2 f8 bf
       1.0954744 -0.30439866 0.046950836 -1.9444251
000220 31 3d a0 bf 0c f1 1b 3f 4c ee db bf cb 90 b5 bf
       -1.2518674 0.60914683 -1.7182097 -1.4184812
000230 6f b3 47 bf 08 0e ba bf 37 59 a6 bf 54 54 1d c0
       -0.7800817 -1.4535532 -1.2995976 -2.458272
000240 ba d4 36 c0 b9 af 5d c0 fb 2e af bf ca c2 b9 bf
       -2.8567338 -3.4638503 -1.3686212 -1.451257
000250 b5 2c ac bf 87 d8 a4 bf 95 b2 b1 be 01 b8 6e 3f
       -1.3451144 -1.2878579 -0.3470656 0.9324952
000260 09 5c 29 3e 52 3b c4 3e a7 b8 78 3f 15 ef 58 3f
       0.16539015 0.38326508 0.9715676 0.8473981
000270 6d 29 7f 3f 2d b0 05 3f 7a cb 80 3f 20 94 85 bf
       0.99672586 0.5222195 1.0062096 -1.0435829
000280 da d3 e7 3d be d0 19 40 18 af 3c bf 55 57 29 be
       0.11319704 2.4033656 -0.7370467 -0.16537221
000290 b8 10 12 be a2 eb a7 bd 45 21 07 bd 45 c1 be be
       -0.1426419 -0.0819924 -0.032990713 -0.37256828
0002a0 0c a1 46 3f dd 23 3f 3e 9a 49 5d bf f7 11 e4 3a
       0.7758949 0.18666025 -0.8644043 0.0017400373
0002b0 f6 2c 26 bd a3 e4 96 be 88 d9 15 3f 09 40 d3 3e
       -0.04057022 -0.2947131 0.5853505 0.41259792
0002c0 39 c8 80 bf e8 16 10 40 57 50 b9 3f 66 f9 d0 bf
       -1.0061103 2.251398 1.4477643 -1.632611
0002d0 0d c4 a0 3e b2 fe 5d bf b4 46 7f bf 70 2b 00 bf
       0.31399575 -0.8671676 -0.9971726 -0.5006628
0002e0 e9 0a f9 be 3b e3 0c bf c4 96 29 bf 69 34 1a 3f
       -0.48641136 -0.55034226 -0.66245675 0.6023622
0002f0 d0 1e 30 3f 70 1e 27 3d e1 b4 22 3d b2 f0 c3 3d
       0.68797016 0.04080051 0.03972328 0.09567393
000300 6f 48 20 3e 01 42 72 bc f8 83 b1 be 75 20 cb bd
       0.15652631 -0.014786244 -0.34670997 -0.099183
000310 e0 bb b5 be ac 63 98 be 37 67 34 3e 54 16 83 3e
       -0.354949 -0.29763544 0.17617498 0.25602973
000320 d4 9a 4b be 53 87 28 3e 68 26 0c 3e eb 8c 45 3e
       -0.19883281 0.16457872 0.13686526 0.19292037
000330 5f 95 23 be 12 d1 98 3e 5f 1f e9 3e 03 3a b5 bb
       -0.1597495 0.29847008 0.45531747 -0.005530597
000340 8f e0 d4 3e ce 76 60 3e 5d 4b 7a bd 37 77 23 be
       0.41577575 0.2192032 -0.06110703 -0.15963446
000350 a6 83 6f be e9 4f 12 be 74 bc ed bd df 3c 33 3e
       -0.23390064 -0.14288296 -0.1160821 0.17503689
000360 a3 89 35 3f 80 60 33 3d 31 0b 29 bf f3 b5 2f be
       0.7091314 0.0437932 -0.660327 -0.17159252
000370 21 28 49 3d 6a eb b4 be 94 43 eb bd 80 b7 02 3f
       0.049110536 -0.35335857 -0.11487499 0.5106125
000380 2e 77 ad 3d db 58 ce 3e 00 07 53 be bc 7f b1 3e
       0.08469997 0.40302166 -0.20608139 0.34667766
000390 7b 2c 8f 3e 60 9e ff 3d 42 ac b9 3e e5 a2 84 3e
       0.27963623 0.124813795 0.36264235 0.2590553
0003a0 53 73 7e 3e 1f ba 32 3b 42 7b 25 3f f3 0c d4 be
       0.2484868 0.0027271581 0.646412 -0.4141613
0003b0 ef 9a ce bc 36 95 4f 3e 5e 09 b8 bd 86 f7 8a 3e
       -0.025220362 0.20271763 -0.08986162 0.2714197
0003c0 a5 74 5b 3e a4 ef e5 3e 87 0d a9 3e 83 e4 b4 3c
       0.21431215 0.44909394 0.33018133 0.02208162
0003d0 5e 01 3b 3f 21 1a 1c 3f 0b 18 ce bf b7 00 a8 3d
       0.7304896 0.6097737 -1.6101087 0.08203261
0003e0 00 9b 1c bf 58 d7 3c c0 53 48 26 bf b5 6f 64 bf
       -0.6117401 -2.9506435 -0.6495411 -0.8923295
0003f0 05 78 8d bf 13 e9 83 bf 9d 8a 4f c0 0c 75 e8 bf
       -1.1052252 -1.0305504 -3.2428353 -1.816072

cnn_branch.0.bias f4 [16]
000000 4e 82 34 3e c4 3d 2e 3f 92 d4 15 bf a5 27 7b 3f
       0.17627832 0.68062997 -0.5852748 0.9810737
000010 a7 82 85 bd c5 8e b8 3f 1e e0 02 3f f6 f9 87 3e
       -0.065190606 1.441857 0.51123226 0.26557893
000020 bb 00 e4 be 38 56 16 3e c3 8e 13 bf e0 27 04 be
       -0.44531807 0.14681327 -0.5763971 -0.12905836
000030 90 8c 38 c0 04 a9 26 3e ea 2e d3 3c c5 55 72 be
       -2.8835793 0.16275412 0.025779206 -0.23665531

cnn_branch.1.weight f4 [16, 10, 10]
000000 8c f5 7c 3f 5d 0a 74 3f 4e ef 72 3f 78 5f 7c 3f
       0.98812175 0.95328313 0.948964 0.98583174
000010 8d 49 7d 3f 30 64 63 3f d6 44 80 3f 48 5e 81 3f
       0.98940355 0.8882475 1.0021007 1.0106897
000020 02 16 7e 3f 25 99 7e 3f 53 70 7b 3f 4c e6 6b 3f
       0.9925233 0.9945243 0.9821827 0.9214828
000030 30 dd 6d 3f 1d 4f 76 3f fe f8 96 3f 5d 49 78 3f
       0.9291563 0.9621447 1.1794736 0.96986943
000040 d7 7e 4e 3f d1 39 57 3f 10 ca 79 3f dd 09 7d 3f
       0.8066229 0.84072596 0.9757395 0.98843175
000050 68 60 72 3f 1b 3b 76 3f 90 99 a6 3f a1 76 77 3f
       0.94678354 0.9618394 1.3015614 0.9666539
000060 82 0f 81 3f f5 bd 64 3f c8 26 9f 3f 1c 74 a6 3f
       1.0082858 0.8935235 1.243371 1.3004184
000070 90 5c 7d 3f 74 5a 77 3f 54 64 76 3f 07 70 69 3f
       0.98969364 0.96622396 0.9624684 0.91186565
000080 27 51 83 3f 45 97 90 3f 28 89 6b 3f 24 bb 58 3f
       1.0259141 1.1296164 0.9200616 0.84660554
000090 98 ec 74 3f 93 fc 7a 3f 4b a8 6f 3f c8 a1 75 3f
       0.95673513 0.9804165 0.9361617 0.95949984
0000a0 f7 c7 7a 3f 98 40 61 3f 5a c5 77 3f 55 97 7d 3f
       0.9796137 0.8798919 0.9678551 0.9905904
0000b0 32 c3 6c 3f 1c 6c 77 3f bc c5 81 3f d8 7d 86 3f
       0.92485344 0.96649337 1.0138469 1.0507154
0000c0 f8 3e 80 3f 73 38 7e 3f d2 28 7f 3f aa 6c 68 3f
       1.0019217 0.99304885 0.9967166 0.9079081
0000d0 92 41 81 3f 58 e9 7a 3f c2 9b 2d 3f 61 e4 50 3f
       1.0098135 0.98012304 0.6781579 0.8159848
0000e0 79 59 64 3f ed 45 73 3f da 06 6f 3f 94 62 7b 3f
       0.89199024 0.95028573 0.9336983 0.98197293
0000f0 fa 6d 84 3f 49 8e 92 3f c0 0d 35 3f 97 fe 50 3f
       1.0346062 1.1449672 0.70724106 0.81638473
000100 35 5f 63 3f da 1c 6e 3f 91 a9 bc 3f e0 f3 c3 3f
       0.8881715 0.93012774 1.4739248 1.53088
000110 e1 19 76 3f 8c 1b 79 3f ee 2c 8f 3f 8d 68 b8 3f
       0.9613324 0.9730766 1.1185586 1.4406906
000120 c5 61 0c 3f f5 80 5e 3f 91 ef 4c 3f de 79 56 3f
       0.54836684 0.8691552 0.8005305 0.83779705
000130 66 7d 31 40 80 3d bf 3f de 9f 7a 3f 47 87 7b 3f
       2.7732787 1.4940643 0.9790019 0.9825329
000140 9d 09 80 3f 2d f3 7e 3f 80 6c 81 3f 05 69 76 3f
       1.0002934 0.99589807 1.0111237 0.96254
000150 1a d4 79 3f 67 b6 6d 3f 84 d6 4d 3f 33 92 76 3f
       0.97589266 0.9285645 0.8040545 0.9631683
000160 cd 10 35 3f 11 94 7c 3f b1 7e 7e 3f 2b 28 7e 3f
       0.7072876 0.9866343 0.99412066 0.9928004
000170 b8 c6 8a 3f 58 1c 80 3f 5c 02 78 3f d8 c3 76 3f
       1.0841894 1.000865 0.968786 0.96392584
000180 37 83 83 3f ca 41 77 3f 24 e3 80 3f 19 fb 80 3f
       1.0274419 0.9658476 1.0069318 1.0076629
000190 75 25 7b 3f 78 eb 69 3f 51 fa b9 3f f7 7d f8 3f
       0.9810403 0.9137492 1.4529516 1.9413441
0001a0 69 20 23 3f 9b 33 43 3f 15 71 1a 40 24 b7 7d 3f
       0.6372133 0.7625062 2.413152 0.99107575
0001b0 19 3d a5 3f d0 56 86 3f 56 20 76 3f 16 9a 4c 3f
       1.290927 1.0495243 0.9614309 0.79922616
0001c0 11 65 83 3f 1c 7d d1 3f 53 8b 2b 3f 1c c5 b0 3e
       1.0265218 1.6366305 0.67009467 0.34525383
0001d0 82 c3 11 3d af a6 63 3f 07 85 cb 3f dc 4a 8d 3f
       0.03558684 0.88926214 1.5899972 1.103847
0001e0 53 d5 77 3f 03 aa ef 3f 5d f1 94 bd fa b1 f5 3d
       0.9680988 1.8723758 -0.07272599 0.11996837
0001f0 b6 3a 70 3f aa 1e fc 3f 66 e8 d3 3e c9 fb b7 3e
       0.93839586 1.9696858 0.41388243 0.35934284
000200 70 72 45 3f 57 e9 81 3f 78 bd 67 3f 1d 20 19 40
       0.7712774 1.0149335 0.9052348 2.392585
000210 90 8f af 3d 5a da c5 3e fe 2d 57 3f 64 25 59 3f
       0.08572304 0.38643152 0.84054554 0.8482268
000220 f1 c1 9a 3f f8 d8 03 3f 5f 7f 51 3f 7b 09 84 3f
       1.2090436 0.51502943 0.8183498 1.0315393
000230 68 84 57 3f fb f8 7f 3f 04 fb 2a 40 c9 24 2e 3f
       0.8418641 0.9998929 2.6715708 0.6802488
000240 5c 2c 90 3f 88 7c 95 3f 86 54 f9 3f 1a 02 a6 3f
       1.1263537 1.1678629 1.947892 1.2969391
000250 31 be 66 3f 8a 43 7e 3f c0 4b 6e 3f 0e 5b 89 3f
       0.9013396 0.99321806 0.93084335 1.0730913
000260 0a 71 0d 40 2c b8 cd bd d9 ac 07 3f f0 0e 30 3f
       2.2100244 -0.100448936 0.5299812 0.6877279
000270 e4 56 67 40 aa ad b6 3f f0 97 54 3f 3b df 80 3f
       3.6146784 1.4271748 0.8304434 1.0068125
000280 f1 c8 75 3f 24 e0 40 3f e1 b8 a7 3e 5e d7 dc 3f
       0.9600974 0.7534201 0.3275824 1.7253225
000290 1a c9 e2 3e 27 ff da 3f 96 7c 68 be e9 dd 9d 3f
       0.44294053 1.7109116 -0.22703776 1.2333347
0002a0 c4 28 57 3f 5e 0c 82 3f e4 a9 12 3f 02 3f c7 3f
       0.8404658 1.0160024 0.5729048 1.5566103
0002b0 2f 25 8b 3f 1d 13 44 3f ba e0 b1 3f 8d 41 64 40
       1.0870723 0.76591665 1.3896706 3.566501
0002c0 87 b6 40 3f fa cd 3a 40 5e ce 69 3f e9 9c 78 3f
       0.75278515 2.9188218 0.91330516 0.97114426
0002d0 1b a4 73 3f af 19 0f 3f 51 56 54 3f 9d e7 81 3e
       0.9517228 0.55898565 0.8294421 0.2537202
0002e0 0d 4a 93 3f 4d 08 04 40 da 42 7d 3f ca 44 92 be
       1.1506974 2.0630066 0.9893013 -0.28568107
0002f0 66 9a 64 3f 45 8f 79 3f e0 59 82 3f 58 fa 62 3f
       0.89298093 0.97484237 1.0183678 0.88663244
000300 d7 59 73 3f 14 5b 12 3f b2 62 98 3f 59 11 d4 3f
       0.9505896 0.57170224 1.190512 1.6567794
000310 6d bc 81 3f c6 82 06 3f 9e 5e 77 3f ea 22 7b 3f
       1.0135628 0.52543294 0.9662875 0.9810015
000320 13 61 7f 3f e5 a5 7b 3f d3 cc 78 3f 7a 4b 73 3f
       0.997575 0.9830001 0.97187537 0.95037043
000330 42 d8 5b 3f 98 64 68 3f 44 d5 59 3f f5 35 6a 3f
       0.8587686 0.90778494 0.8509104 0.9148858
000340 02 71 72 3f a6 7a 76 3f 7a 55 7f 3f 27 51 80 3f
       0.94703686 0.96280897 0.997398 1.0024766
000350 4d 20 6a 3f 74 a1 75 3f a5 ee 63 3f dd af 65 3f
       0.9145554 0.9594948 0.8903602 0.8972147
000360 8f f1 2d 3f 5f 2e 6a 3f 2a 99 71 3f 87 24 74 3f
       0.67946714 0.91477007 0.94374335 0.95368236
000370 2d 47 82 3f d8 5d 7f 3f e8 bc 7f 3f ca e6 43 3f
       1.0177971 0.9975257 0.99897623 0.7652403
000380 33 94 5b 3f 9b b4 b0 3f 7b cb 9d 3f 4b 34 86 3f
       0.8577301 1.3805116 1.2327722 1.0484709
000390 6b 9b 81 3f b4 14 7d 3f 74 ce 80 3f 63 bb 7f 3f
       1.0125555 0.98859715 1.0063004 0.99895304
0003a0 34 84 6c 3f 84 e5 66 3f 03 84 83 3f c9 90 b5 3f
       0.92389226 0.90193963 1.0274662 1.418481
0003b0 0f 80 87 3f d7 26 80 3f 8f af 85 3f 97 fd 76 3f
       1.0585955 1.0011853 1.0444201 0.964807
0003c0 46 a2 83 3f bd 71 b8 3f 4e ad 70 3f 38 ca 65 3f
       1.0283897 1.440971 0.9401444 0.89761686
0003d0 02 a3 80 3f b7 2e 98 3f f8 d3 88 3f 05 1e 87 3f
       1.0049746 1.1889256 1.0689688 1.0556036
0003e0 60 80 87 3f c8 be 7e 3f 52 bf 81 3f 88 bb 9e 3f
       1.0586052 0.9950986 1.0136511 1.240098
0003f0 89 b9 6f 3f 55 fd 3e 3f 89 55 92 3f b9 e1 a7 3f
       0.9364248 0.74605304 1.1432353 1.311576

cnn_branch.1.bias f4 [16, 10, 10]
000000 ef d7 fb 3a 0b db 01 bc 02 b5 d4 3c 00 6e 99 3c
       0.0019214133 -0.007925759 0.025965218 0.01872921
000010 4f 23 97 3d 9c 6f c1 3d a4 06 a3 3d ec ae 3b 3d
       0.073797815 0.09445116 0.07960251 0.045821115
000020 85 d8 1e 3c c0 12 d4 b8 3a d5 b6 3b f0 7d 38 3b
       0.009695177 -0.0001011244 0.005579618 0.0028151236
000030 fa 5c a2 bb a2 c9 94 3d dd f3 98 3e 9d 89 b8 3d
       -0.0049549313 0.07265021 0.29873553 0.09010623
000040 d5 6d a1 bc a1 26 53 3c 0c 73 ef bb 0a ab 45 3b
       -0.019705692 0.012887628 -0.007307416 0.0030161762
000050 34 f2 36 bc 43 40 ee bb 3a f0 4b 3d af 7c a9 bc
       -0.011166144 -0.007270844 0.049789645 -0.020689337
000060 7c c2 d3 bd ef 96 df bd 92 5a 7a be 78 b9 81 be
       -0.10339829 -0.1091746 -0.24448612 -0.25336814
000070 d9 77 46 bc b6 05 f7 ba 8f 3b ab bc ef 2b 74 bb
       -0.012113535 -0.0018846306 -0.020902423 -0.0037257632
000080 ab 2a c6 bd 76 4a 9c bd 69 58 0c bd cb 7c d4 3b
       -0.09676107 -0.0763139 -0.034264002 0.006484603
000090 28 03 82 bb bd 82 4d bc 3c 77 32 bd 14 7f 3e bc
       -0.0039676614 -0.0125433775 -0.043570742 -0.0116269775
0000a0 b1 ad 08 3b 29 b5 9c bb df 3d ad 3d 60 48 78 3c
       0.0020855481 -0.004782338 0.084590666 0.015153974
0000b0 65 ef 55 bd 1b f8 e6 bc 56 df a9 bc 1c cf 8a bd
       -0.052230258 -0.028194478 -0.020736378 -0.06777784
0000c0 2c 8b f2 bc 59 ed 39 bb f1 00 36 3c 19 c2 ad 3c
       -0.029607378 -0.002837023 0.011108623 0.021210717
0000d0 99 b6 30 3e f6 be 70 3d d9 6d 11 3d ca 6c 58 3d
       0.17257155 0.058775865 0.03550515 0.052838124
0000e0 f2 59 d1 3c 41 41 bd bc 81 90 db bc 38 31 ab bb
       0.025555585 -0.023102405 -0.026802303 -0.005224373
0000f0 a9 5f 3b bd 24 d7 07 be bf 04 d7 3d 7d 72 f3 3c
       -0.045745526 -0.13265663 0.10498952 0.029717678
000100 f1 94 60 3c 25 0b a0 3c d3 1d b8 be 3f b4 c3 be
       0.013707385 0.019536564 -0.35960254 -0.38223454
000110 42 9b b6 bc 83 5f 16 bb 41 1b fb bd ac ec c2 be
       -0.02229083 -0.0022945113 -0.12261058 -0.3807119
000120 06 3d 2c 3e 06 38 73 bd 90 f6 65 3d c2 df ce 3d
       0.16820154 -0.0593796 0.056143343 0.10101272
000130 27 9c 56 bf 75 2c eb be 39 6e c5 bc ea 0a 94 bb
       -0.8383202 -0.45932356 -0.02410041 -0.0045179026
000140 79 02 96 3b b8 c1 af 39 60 57 13 3d 10 86 7f bc
       0.0045779315 0.00033522933 0.035972 -0.015595928
000150 ea 28 d1 3b a6 67 b2 3d 09 a1 36 3e bd ad 47 bb
       0.006383051 0.087111756 0.17834868 -0.0030468546
000160 26 25 c2 3d b7 4f e6 3b a0 62 29 bc 20 20 10 ba
       0.09479742 0.0070285457 -0.010338455 -0.0005497951
000170 47 6c 01 3e 65 a6 b6 3c f7 b5 04 3d bf 7f a3 3d
       0.12638961 0.02229614 0.032400098 0.0798335
000180 72 49 0c bd cd 13 bc 3b 1f 4d 5b 3c 04 f8 a9 bb
       -0.03424973 0.005739665 0.013385086 -0.0051870365
000190 bf a0 2e bc ee d1 ed bc 08 95 6b bd 4a 40 52 be
       -0.010658442 -0.029030766 -0.057515174 -0.20532337
0001a0 3b d9 df bc 34 57 62 3e 8f e5 5b 3e d1 82 e2 bc
       -0.027325263 0.22103578 0.21474288 -0.027650269
0001b0 69 e8 ab 3d ba fb 6c 3d c3 c5 a5 bd 65 2d c5 bd
       0.08393938 0.057857253 -0.08094361 -0.09627799
0001c0 35 ab 2c 3d 52 75 86 3e 31 ac 93 be ac e5 7a 3e
       0.042155463 0.26261383 -0.2884231 0.24501675
0001d0 2e b4 03 bd cb 8d 16 bd 1c 5e 25 3e ee 68 9a 3d
       -0.032154255 -0.036756318 0.16149181 0.07539545
0001e0 e2 84 53 bd 96 d2 86 bf d6 87 8d bf c2 19 6f be
       -0.0516404 -1.0533016 -1.1057079 -0.2334967
0001f0 4a 9a 88 bd 7e e7 0b 3e 0e e3 85 be 3d 56 62 be
       -0.06670053 0.13662526 -0.2614979 -0.2210321
000200 e4 a0 3a 3d 7c 9f ae bc 3e 6d 88 be ce f6 88 3e
       0.045563594 -0.021316282 -0.26645845 0.26750797
000210 8e dc 13 bf 0f 24 e4 be 9c 91 6c 3d 9f 51 eb bc
       -0.57758415 -0.4455876 0.05775605 -0.028725443
000220 2a ad 48 be 5e d8 7d 3c 6d 8b 78 3d 33 06 ff bb
       -0.19597307 0.0154934805 0.06067984 -0.0077827214
000230 62 f3 8e bd c3 b9 02 be 5d 8b 0d bf 0c 28 0f 3d
       -0.06980015 -0.12766175 -0.55290776 0.0349503
000240 e4 37 75 3e f8 79 d0 be d0 b8 24 bf 2b 1d 05 bf
       0.23947102 -0.40718055 -0.643445 -0.5199763
000250 be 59 90 3d c5 a6 89 3c ad 99 a5 bd be b7 80 bd
       0.07048367 0.016803155 -0.08085952 -0.06285046
000260 0c c8 b0 bf 02 2e f5 3d 8f 3f 61 be 65 60 6a 3d
       -1.381105 0.11971666 -0.21996902 0.057220835
000270 af da 25 bf f9 72 c1 be e0 ef 17 3e 21 bc 50 3c
       -0.6478681 -0.3778303 0.14837599 0.012740166
000280 ae b3 8f bb 38 63 34 bc 4a ca cd 3e 04 e8 88 3f
       -0.004385433 -0.011009984 0.40193397 1.0695806
000290 bc 35 8e 3e 12 a8 d8 3f 12 9f 09 3e 48 01 b4 3e
       0.2777537 1.6926291 0.13439587 0.35157228
0002a0 eb 45 81 ba ce 9f 3c 3d cd f9 0a be 17 0d 5c bf
       -0.0009862756 0.04605084 -0.13571854 -0.85957474
0002b0 de 5f ae 3f 0a 3a 5e ba af a3 6a 3f 54 7e e9 bd
       1.3623006 -0.00084772764 0.9165601 -0.11401048
0002c0 ae 38 75 bf 12 39 b5 3e 83 58 cd bd 34 7a 94 3d
       -0.9578961 0.35395104 -0.10026648 0.07249871
0002d0 b8 b4 db bd e5 4e 29 be 7e 23 f5 bc 51 31 bb 3c
       -0.10727829 -0.16534002 -0.02992415 0.022850664
0002e0 de 5c 0e be de 8f 31 3e ef 98 2e 3c 84 34 bb 3c
       -0.13902614 0.17340037 0.010656579 0.02285219
0002f0 b4 7f 5e 3b ae 4e 87 bb 24 18 3d 3c ad 2c c4 3c
       0.0033950629 -0.0041292524 0.0115414 0.023947084
000300 80 62 09 bc 7f ce 96 3d 5a d2 06 bc 47 b8 e5 bc
       -0.008385301 0.07363605 -0.008228863 -0.028041972
000310 7d 85 64 bc ff c5 00 3e b8 4c f1 ba ab 88 2a 3b
       -0.013947842 0.1257553 -0.0018409705 0.0026021402
000320 2b 9d f7 bb c7 5c a2 bb d5 d8 de ba d0 12 08 bc
       -0.0075565777 -0.0049549076 -0.0017001877 -0.0083052665
000330 cf 5b ba bd e9 5b 23 bd ba 77 1d bc fa b5 1c 3c
       -0.09099542 -0.039882574 -0.009611065 0.009564871
000340 9a 0b 72 3b da 75 ab 3b 75 49 75 ba 91 ca cb bb
       0.0036933185 0.005232555 -0.0009356954 -0.006219216
000350 87 a6 5e bc ee e7 27 b9 1f a0 68 bc 65 60 6d 3c
       -0.013589508 -0.00016012762 -0.014198332 0.014488314
000360 ee f5 88 3a 78 0a 39 bd b0 2a c6 3c 4a f5 af 3c
       0.0010449269 -0.045176 0.024190277 0.021479268
000370 11 d0 81 3c 53 98 75 3c b2 ca 5c 3c 8d e6 05 3c
       0.015846284 0.01498993 0.013476061 0.008172643
000380 8c af 5a bc d7 2c 76 bd c3 49 10 bd 78 e7 b9 bc
       -0.013347518 -0.060101356 -0.035226595 -0.02269338
000390 a1 a2 e9 3c 5c 20 2e 3c 71 a0 9e 3b 95 e2 2d 3c
       0.02851993 0.010627832 0.0048409034 0.010613103
0003a0 2a e2 0f bc b7 0d 10 bd 12 af a6 3c 2b f9 a2 bd
       -0.008781949 -0.03516933 0.020347152 -0.07957681
0003b0 3a 05 35 bd 06 eb c1 3c ad 69 8b 3d 23 f6 c2 3c
       -0.044194438 0.023671638 0.068072654 0.023799008
0003c0 1d 7a f0 3c c1 0e 27 3e 95 45 57 bc fe 65 74 bd
       0.029355103 0.16314222 -0.013139148 -0.05966758
0003d0 51 17 57 3d b1 b3 1c ba b9 e6 92 3d b1 34 11 3e
       0.05251247 -0.0005977704 0.07172913 0.14180256
0003e0 c7 04 98 3d dc ee 8f 3c 1d e0 18 3d e6 ce 4b 3e
       0.07422786 0.017569952 0.037323106 0.19903144
0003f0 91 58 1e bc fd 6f 65 3c b6 b7 63 3e 06 b1 a1 3d
       -0.009664671 0.014003751 0.22238049 0.07895093

fc.0.weight f4 [1, 1600]
000000 45 e4 af be 65 56 dd be be d4 7d be 4a 98 47 bb
       -0.34353843 -0.43229976 -0.24788186 -0.0030455762
000010 74 25 f7 bd ea 0d c7 be 98 d9 f1 be c5 2b 9a be
       -0.120676905 -0.38877803 -0.47236323 -0.30111519
000020 c7 a1 52 be 81 dc b0 bd 5d 55 a9 be 05 8d 56 be
       -0.20569526 -0.08635808 -0.3307294 -0.20952232
000030 37 fb 3d 3e d8 f2 b5 bd c9 d6 09 bf 8b 44 3e be
       0.18552862 -0.088842094 -0.5384336 -0.18580835
000040 b0 e2 04 3f 1a 7d ab 3e fe 7d ae bc 81 17 80 bd
       0.519084 0.33493882 -0.021300312 -0.06254483
000050 b5 1b 88 be 47 8b 90 3e fa dd 93 3f f7 63 bd 3e
       -0.2658364 0.2823126 1.1552117 0.3699033
000060 72 7c 16 3f 87 e5 4d 3f 0b 7f 6f 3f af 0e 6a 3f
       0.5878364 0.80428356 0.9355323 0.91428655
000070 23 29 49 3e df 3a b4 bc 93 86 b2 be 88 b9 fd bc
       0.19644599 -0.022000728 -0.34868297 -0.030972257
000080 f6 93 d5 be 9f 25 2d bf 53 a4 f0 3e 6b 6c 55 3d
       -0.41714448 -0.6763553 0.4700037 0.05210535
000090 7e e9 76 be e9 e0 4a be 0e fb f1 bd 53 e6 fd bc
       -0.24112508 -0.19812359 -0.11815463 -0.030993616
0000a0 16 fd 81 3e 68 a0 db 3e 7a 8b 9d 3e 01 5f 0b 3e
       0.25388402 0.42895818 0.30770475 0.1361046
0000b0 b0 5c b9 be 8e 44 31 bf e8 cf 33 bf 70 5d 2e bf
       -0.36203527 -0.6924523 -0.70239115 -0.68111324
0000c0 a5 f6 19 bf b9 69 88 be 9e 14 df 3e 5f 23 1f 3f
       -0.60141975 -0.2664316 0.43570417 0.62163347
0000d0 1c 46 5b 3f 14 20 b6 3e 63 1f fa be 82 ae f5 be
       0.85653853 0.3557135 -0.4885207 -0.479847
0000e0 3f 78 a7 be f7 74 2d be 91 f9 85 be c3 70 d4 bd
       -0.32708928 -0.1693915 -0.26166967 -0.1037307
0000f0 aa 6a 03 bf e3 b8 47 bf 9d d2 9d bc 50 7a f5 be
       -0.5133463 -0.7801649 -0.019265467 -0.4794488
000100 d2 2d 26 be 53 bd cb 3d c3 ae b6 bf c4 ce 9c bf
       -0.16228417 0.0994822 -1.4272083 -1.22506
000110 93 84 6c bd 8e b1 66 3d 03 b3 5a bf 55 f2 9d bf
       -0.05774362 0.056321673 -0.854294 -1.2339579
000120 8c 20 d8 be 26 95 1b bf 06 ab 44 3f 16 79 03 3f
       -0.4221233 -0.6077446 0.7682346 0.5135664
000130 c1 83 16 c0 ed 22 9b bf 24 c6 30 3e 12 4a f8 bd
       -2.3517916 -1.2120034 0.17263085 -0.12123503
000140 3c ca 14 bf 7d 3f bf bd 68 0c e7 3e 67 bb a7 3c
       -0.58121085 -0.09338281 0.45126653 0.020475103
000150 f4 89 5e be d8 b8 28 bf 88 d9 a3 bf 88 54 36 be
       -0.21732312 -0.6590705 -1.280076 -0.17805684
000160 f1 88 10 3f 8c 15 80 3e ad f5 87 be 40 de ac 3c
       0.56458956 0.2501644 -0.26554623 0.02110207
000170 d9 ce 61 3f 1c cb a5 3e e0 93 dd be a2 8e 4f bf
       0.8820625 0.32381523 -0.43276882 -0.81077015
000180 11 dc a0 bf 7a 47 60 be 00 4c 33 3f 72 55 72 3e
       -1.2567159 -0.21902266 0.7003784 0.23665407
000190 f9 6e ec 3d b4 78 82 3d 91 51 95 bf b5 7f c4 bf
       0.11544604 0.063706785 -1.1665517 -1.5351473
0001a0 88 e8 84 be b7 36 82 3d 36 ab fd 3f 8f 17 f0 3e
       -0.25958657 0.06358092 1.9817874 0.46892974
0001b0 b5 2c 43 bf b3 3f ed be b1 98 e6 3e 5b 8d 8d 3e
       -0.7624009 -0.4633766 0.4503837 0.27646908
0001c0 47 69 24 bf 82 09 90 bf f7 47 b7 bd 8c d2 75 bf
       -0.6422314 -1.1252902 -0.08949273 -0.96024394
0001d0 6b 57 35 3f 88 bf 3e 3c 2b f2 94 bf a6 57 0b bf
       0.70836514 0.011642344 -1.1636404 -0.54430616
0001e0 25 1f fb be 1b 77 bf bf 9a 58 85 bf 86 46 a4 bf
       -0.490472 -1.4958223 -1.0417664 -1.2834022
0001f0 a5 b6 75 bd 0d e0 e0 bf d4 02 93 3e 56 6e 38 3f
       -0.059988637 -1.7568375 0.28713095 0.7204336
000200 52 e7 c4 3e 07 e5 1a 3f e4 b7 73 bf b3 d0 f3 bf
       0.38457733 0.6050572 -0.9520247 -1.9048065
000210 36 0a 51 be f2 fb f6 be 8b 67 86 be 4d 95 03 3e
       -0.20414051 -0.48239094 -0.26250872 0.12849922
000220 9b 45 a5 3f 15 60 97 3f 97 39 36 3f df 47 29 3f
       1.2911867 1.1826197 0.71181625 0.6612529
000230 c9 bb 1b bf 5a 4b 54 bf 20 65 f6 3f b8 70 22 bd
       -0.6083341 -0.8292748 1.9249611 -0.03965828
000240 4a 67 23 3f a5 22 64 3f f3 4c a9 3f 2d c6 77 3f
       0.6382948 0.89115363 1.3226608 0.9678677
000250 f8 0f 91 3d 89 3f 25 be 50 9e aa be a9 71 44 bf
       0.07083124 -0.16137518 -0.33323908 -0.7673593
000260 6c a2 bd 3f 60 c4 96 bf 87 20 01 bf 37 7d 4f 3e
       1.4815192 -1.1778679 -0.5044026 0.2026261
000270 f7 10 e2 3f 7c 81 67 3f 5f f8 85 be 50 3c a8 be
       1.7661427 0.9043195 -0.26166055 -0.32858515
000280 17 4e b9 3d 70 02 32 3e 64 97 9c bd 0c f7 92 bf
       0.090480976 0.17383742 -0.07646063 -1.1481643
000290 8b 6f ad be 62 0b f0 3f 4a 96 48 3e 20 73 1f 3f
       -0.33874163 1.8753474 0.1958858 0.6228504
0002a0 9a ab ff bd ba c7 f7 be 2e 2f 57 bf bf 41 b1 bf
       -0.12483902 -0.48394567 -0.84056365 -1.3848189
0002b0 0e 0e 97 bf 62 22 be bd fd 0a 19 3f d1 72 d5 3f
       -1.1801164 -0.09283902 0.5978239 1.6675664
0002c0 47 db 01 bf 0a a1 7c 3f 24 90 ae 3e 26 43 b6 be
       -0.50725216 0.98683226 0.34094346 -0.35598105
0002d0 e9 f2 bc bf b2 29 d8 bf e3 5c ae 3d ea 1b 35 3f
       -1.476163 -1.6887724 0.085138105 0.7074572
0002e0 78 4b a3 3f 39 2e 25 40 6a fc 3e bf 0b c3 b7 bf
       1.2757406 2.5809462 -0.74603903 -1.4356397
0002f0 20 15 a5 be 54 20 00 3e d4 96 40 bf 19 4a 7b bf
       -0.3224268 0.12512332 -0.75230145 -0.9815994
000300 ab 8b ce 3d 8b 5a 81 3f 1e ed 92 3f 25 36 c9 3f
       0.10085233 1.0105757 1.1478612 1.5719649
000310 28 66 dc be 91 a2 c3 bf 43 59 db be 7b 50 44 3e
       -0.4304669 -1.5283986 -0.4284154 0.19171326
000320 23 12 21 3e ca 85 c5 3d f9 4d 96 be a1 39 77 bd
       0.15729575 0.09644659 -0.29356363 -0.060357694
000330 10 36 bc 3e 8c 59 01 3e 01 2a 8b be 37 46 96 be
       0.36759996 0.12631816 -0.27180484 -0.29350445
000340 16 b5 6b bd 5e e8 5b be 18 5b 4b 3e 4e f7 4a 3e
       -0.057545744 -0.2147536 0.19858968 0.19820902
000350 57 05 e5 be b9 b8 8c be 96 b8 1a be 4e d1 2c be
       -0.44730636 -0.27484682 -0.15109476 -0.16876718
000360 16 19 f6 3e 55 c4 c1 3e 8f a2 a2 3d aa a3 f3 bd
       0.48066014 0.37845102 0.07941162 -0.11896451
000370 e6 f8 8d 3e 89 0a 98 3e 5b 62 90 3e 48 b8 d0 be
       0.27728957 0.29695538 0.2820004 -0.40765595
000380 92 7a 9d bd 82 f0 76 3f 97 ed 86 3f ee bc 21 3f
       -0.07689394 0.96460736 1.0541257 0.6317891
000390 49 9e ac 3e 0d 0b 48 3e 16 25 61 3e e6 de 6a 3e
       0.33714512 0.19535466 0.21986803 0.22936592
0003a0 3d c7 3e be b0 4e 38 bf 45 8a 25 3e ae d5 8f 3f
       -0.18630691 -0.7199507 0.16166027 1.1237085
0003b0 74 90 4e 3f 0f 9e e3 3e af 28 a4 3e 7e 71 43 3e
       0.8068917 0.44456527 0.3206229 0.19086263
0003c0 83 21 ff be 0b 53 92 bf c4 05 8e be d2 b4 46 be
       -0.49830255 -1.1431593 -0.27738774 -0.19404915
0003d0 d9 eb 2c 3f c1 28 7d 3f ee ce 0f 3f 24 2d 2c 3f
       0.67547375 0.9889031 0.56175125 0.6725638
0003e0 e5 fb bf 3e 92 6d 05 3d 73 74 f8 be dc cb 64 bf
       0.37496868 0.032575198 -0.48526344 -0.89373565
0003f0 b2 7b 45 3e b1 f7 6b 3e a5 6b 51 3f da a8 8d 3f
       0.19285467 0.23043706 0.8180488 1.1067154
