gio_notebooks/treasury_REFINED_info/CNN_avg_rmse0.32911_cnn1_d1_e170/model.pt (torch, 23476 bytes, 5 tensors)

cnn_branch.0.weight f4 [16, 3, 3, 3]
0	0x3f07ac4b	0.52997273
1	0x3c3f250b	0.011666547
2	0xbf97c8ca	-1.1858151
3	0xbefa502e	-0.48889297
4	0xbf0caa74	-0.5494759
5	0xbf67be81	-0.9052506
6	0xc00f2d14	-2.2371264
7	0xbfb1f3b7	-1.3902501
8	0xbf860df6	-1.047301
9	0xbe287db8	-0.16454208
10	0xbef67a5f	-0.48140237
11	0xbf62538e	-0.88408744
12	0x3e8127dc	0.25225723
13	0x3f089662	0.53354466
14	0x3c9de8f4	0.01927612
15	0xbe682fb9	-0.22674455
16	0xbeb71886	-0.35760897
17	0x3e9bd026	0.30432242
18	0xbf908b5b	-1.1292528
19	0xbf81b0ad	-1.0132042
20	0xbe4ca258	-0.19983804
21	0xbe8e7f95	-0.27831712
22	0xbece6c66	-0.40317076
23	0x3e4f7896	0.20260844
24	0x3fbf316e	1.493696
25	0x3f83da6c	1.0301032
26	0x3f797c67	0.9745545
27	0x3ead2c8e	0.33823055
28	0xbfd1ebf3	-1.6400131
29	0xc02fa2cb	-2.744311
30	0x3e94713e	0.28992647
31	0xbf9b2d0c	-1.2123122
32	0xc01f570c	-2.489688
33	0x3f7f9961	0.9984341
34	0xbf62c302	-0.8857881
35	0xbf875e5d	-1.0575672
36	0xbeabcc68	-0.33554387
37	0xc02e68e5	-2.7251523
38	0xc063d5da	-3.5599275
39	0xbe295557	-0.16536461
40	0xbff83704	-1.939179
41	0xbfe985a2	-1.8243906
42	0x3f5bb410	0.8582163
43	0xbe862848	-0.26202607
44	0x3ebde87e	0.3709144
45	0x3f050c95	0.51972324
46	0x3f534a84	0.82535577
47	0x3f900271	1.1250745
48	0xbe171ae0	-0.14756346
49	0x3f0f92a3	0.56083125
50	0x3f6ae3bf	0.9175376
51	0xbf9e5aa0	-1.2371407
52	0x3f42d927	0.761126
53	0x3f8216bc	1.0163188
54	0x3e8c367b	0.27385315
55	0xbed6fdd4	-0.4199053
56	0xbf0c9990	-0.5492182
57	0x3ea05b79	0.31319788
58	0x3e398487	0.18116961
59	0x3db56d5f	0.088587515
60	0x3f9c4045	1.2207114
61	0x3f95daa9	1.1707355
62	0x3f606121	0.87648207
63	0xbe8c0d26	-0.2735378
64	0x3f1d4dec	0.61447024
65	0x3fa3e148	1.2803125
66	0x3bee0c35	0.007264639
67	0x3ec15777	0.37762043
68	0x3f04a8e2	0.51820195
69	0x3e9ea81e	0.30987638
70	0xbe92d594	-0.28678572
71	0xbee90419	-0.4551094
72	0xbe2d06ca	-0.16897121
73	0x3f1f6f51	0.6227923
74	0x3f10c8fb	0.5655667
75	0xbe0899fe	-0.13339993
76	0x3e71d3e1	0.23615982
77	0x3e4fad06	0.20280847
78	0x3ddf9e13	0.10918822
79	0x3c0a7636	0.008451035
80	0x3cc8c0bc	0.024505965
81	0xbf24d997	-0.64394516
82	0xbf134243	-0.5752298
83	0xbe8cb2b4	-0.2748009
84	0xbebeaacf	-0.37239692
85	0xbdbe9724	-0.093061715
86	0x3e98b3ab	0.29824576
87	0xbfb4b2c0	-1.411705
88	0xbf0c4c90	-0.54804325
89	0xbe766dad	-0.24065275
90	0xbfbe1acc	-1.4851928
91	0x3e94032c	0.2890867
92	0x3fafb5d8	1.3727369
93	0xbe70e270	-0.23523879
94	0xbea6e283	-0.3259469
95	0x3d18ce50	0.03730613
96	0x3de339cc	0.11095008
97	0xbf264c18	-0.6495986
98	0xbf3aff1e	-0.7304553
99	0xbe09d85d	-0.13461442
100	0x3f0ddb4f	0.55412763
101	0x3d6906f9	0.056891415
102	0x3f63f84e	0.8905076
103	0xbd25891f	-0.040413972
104	0xbf35b020	-0.7097187
105	0x3fb23f92	1.392565
106	0x3e57603e	0.21032807
107	0xbe2c7c7a	-0.16844359
108	0xbf4fdb62	-0.81194127
109	0xbe7e5598	-0.24837339
110	0x3f275e26	0.65378034
111	0xbee1adbe	-0.44077867
112	0xbeb8d504	-0.36100018
113	0x3eb217f7	0.3478391
114	0xbe8ed349	-0.27895573
115	0xbe94c391	-0.29055455
116	0xbea33f73	-0.31884345
117	0x3f882f54	1.0639443
118	0x3ed0f627	0.408128
119	0x3ba6da80	0.005091965
120	0xbe498e6d	-0.19683237
121	0x3e1f88db	0.1557955
122	0xbdb5a4d1	-0.08869327
123	0xbfdb6752	-1.7140906
124	0xbf17ef63	-0.5934965
125	0xbdc7d65a	-0.09757681
126	0x3f721805	0.945679
127	0x3f55e195	0.83547336
128	0x3f04f9df	0.51943773
129	0x3f8e6b73	1.1126541
130	0x3f484486	0.7822956
131	0x3ee7a9f4	0.4524685
132	0x3f4f85eb	0.8106372
133	0xbe35855b	-0.17726652
134	0xbed8283b	-0.42218193
135	0xbfb4f54f	-1.4137362
136	0xbe458b6b	-0.19291465
137	0x3f743f51	0.95409113
138	0xbff214be	-1.891258
139	0xbf6b3cb4	-0.918895
140	0xbea1c440	-0.3159504
141	0xbf86e32f	-1.0538081
142	0x3dd1cafa	0.10243793
143	0xbfca2388	-1.5792093
144	0xbfb58154	-1.4180093
145	0xc0324a4f	-2.7857854
146	0xc01d1fdc	-2.4550695
147	0xbf89149f	-1.0709418
148	0xbfd5cbd9	-1.6702834
149	0xc035ffb2	-2.8437314
150	0x3ece9ff6	0.40356416
151	0x3f20230d	0.62553483
152	0xbdca99ec	-0.098926395
153	0x3f711ebe	0.94187534
154	0x3f88fb77	1.0701741
155	0x3f260023	0.6484396
156	0x3ffb8828	1.9650927
157	0x3faf0428	1.3673143
158	0x3fa0d6d1	1.2565557
159	0xbfebcd5a	-1.8422043
160	0xbfc930ca	-1.5718014
161	0x401afba3	2.4216087
162	0xbea25ed2	-0.31712967
163	0x3ea6aafd	0.3255233
164	0x3e097bc0	0.13426113
165	0x3dfb413c	0.12268302
166	0x3e408238	0.18799675
167	0xbe964cb1	-0.29355386
168	0x3f4a9dbf	0.7914695
169	0x3e622d99	0.22087707
170	0xbf529b74	-0.8226845
171	0xbe62baa2	-0.22141507
172	0x3e67a63b	0.22622006
173	0x3ee386c5	0.44438758
174	0xbdb796f0	-0.08964336
175	0x3e59d269	0.21271671
176	0xbed213dc	-0.41030777
177	0x3f8c9033	1.0981506
178	0x3f14947b	0.58039063
179	0xbfcabd16	-1.5838954
180	0x3f8fc7f8	1.1232901
181	0xbeb0d30f	-0.34536025
182	0xbf4ecb96	-0.807794
183	0x3e15c895	0.14627297
184	0xbe09d307	-0.13459407
185	0xbea0d61d	-0.31413355
186	0xbf435b3e	-0.763111
187	0x3ed16623	0.40898237
188	0x3f44dfc3	0.76903933
189	0xbe193abb	-0.1496381
190	0xbe58f97a	-0.21188918
191	0xbd2d1c21	-0.042263154
192	0xbd364b38	-0.044505328
193	0xbe8326f8	-0.25615668
194	0xbf00c8f9	-0.5030666
195	0xbe271304	-0.16315848
196	0xbeb2ed53	-0.3494669
197	0xbe832246	-0.25612086
198	0x3d21ad50	0.039471924
199	0x3d53b90e	0.051690154
200	0xbe726aab	-0.23673503
201	0x3e1bd897	0.15219341
202	0x3d893c8d	0.06701002
203	0x3e0bde5f	0.13659047
204	0xbd9dcda3	-0.07705238
205	0x3ea0fb9a	0.31441957
206	0x3e94d745	0.29070488
207	0xbd58397b	-0.052789193
208	0x3de01855	0.10942141
209	0xbcc781c4	-0.02435387
210	0x3c9131bf	0.017723916
211	0xbe4df5fb	-0.20113365
212	0xbe9c9f7d	-0.3059043
213	0x3e144479	0.14479245
214	0x3cf0c628	0.029391363
215	0x3e04a8f7	0.1295508
216	0x3ec0db2a	0.3766721
217	0xbe19496f	-0.14969419
218	0xbf533d15	-0.8251508
219	0xbdcdaf28	-0.10043174
220	0x3ddc94c1	0.1077056
221	0xbe9f3d4a	-0.31101447
222	0x3df1573b	0.11784216
223	0x3f159c7c	0.584419
224	0x3d583a5f	0.052790042
225	0x3e979515	0.29605928
226	0xbece4a6b	-0.4029115
227	0x3ce7f07c	0.028312914
228	0x3e64ba5c	0.22336715
229	0xbda58983	-0.08082869
230	0x3dff239e	0.12457965
231	0x3d89c1c9	0.06726415
232	0xbd66e8ea	-0.056374468
233	0xbd819738	-0.06327671
234	0x3ec21997	0.37910149
235	0xbecc5962	-0.39911944
236	0x3a946077	0.0011320253
237	0x3da69e00	0.08135605
238	0xbe08e3db	-0.1336817
239	0x3e96bb02	0.2943955
240	0x3aae8601	0.0013315083
241	0x3e6c5c29	0.23082031
242	0x3ed213ca	0.41030723
243	0xbf83224f	-1.0244845
244	0xbeb12794	-0.34600508
245	0xbc8e7335	-0.01738892
246	0xbff00b4e	-1.875345
247	0x3ee6a693	0.4504896
248	0x3d121ad0	0.0356701
249	0xc044e4c8	-3.0764637
250	0x3e718180	0.23584557
251	0x3f9e073b	1.2345957
252	0xbf0ca1d2	-0.5493442
253	0xbe95b2cc	-0.29237974
254	0xc04fa04f	-3.2441595
255	0xc01039b7	-2.2535226

cnn_branch.0.bias f4 [16]
0	0x3f27af3d	0.6550177
1	0x4025431e	2.5822215
2	0xbfdc6387	-1.7217873
3	0x3f0c4f2e	0.5480832
4	0x3e905e72	0.28197056
5	0x3fb8b538	1.4430304
6	0xbe0ad4a8	-0.13557684
7	0x3e9fa155	0.31177774
8	0xbeceae16	-0.40367192
9	0x3d26a7e2	0.04068745
10	0xbde6c43a	-0.11267896
11	0xbed76845	-0.4207174
12	0xc065527f	-3.5831602
13	0x3f3cca60	0.737463
14	0xbec4239e	-0.38308424
15	0xbebcf333	-0.36904296

cnn_branch.1.weight f4 [16, 10, 10]
0	0x3f82a0d5	1.0205332
1	0x3f853055	1.0405375
2	0x3f9893b8	1.192008
3	0x3f9bc3c3	1.2169117
4	0x3f8e4388	1.1114359
5	0x3f539a18	0.82657003
6	0x3f5fea4c	0.87466884
7	0x3f80c55c	1.0060229
8	0x3f801234	1.0005555
9	0x3f7e7ecf	0.99412245
10	0x3f838437	1.0274724
11	0x3f7dccad	0.99140435
12	0x3f6430ba	0.8913685
13	0x3f9ff1c4	1.2495656
14	0x3fb22024	1.3916059
15	0x3f73556d	0.95052224
16	0x3f87d3e4	1.0611539
17	0x3f64a677	0.89316505
18	0x3f796973	0.9742653
19	0x3f7dab97	0.9908995
20	0x3f79f219	0.97635037
21	0x3f707074	0.9392159
22	0x3fd66f1f	1.6752661
23	0x3f85a245	1.0440146
24	0x3f9231f9	1.14215
25	0x3f78fd33	0.9726135
26	0x3fcc8ccd	1.5980469
27	0x3fb44b9e	1.4085577
28	0x3f7bafaa	0.9831492
29	0x3f7d967d	0.9905775
30	0x3f812ad3	1.0091194
31	0x3f7097f2	0.9398185
32	0x3f5a4479	0.8526073
33	0x3f6b9d26	0.92036664
34	0x3f849275	1.0357195
35	0x3f661e33	0.8988983
36	0x3f6e4efd	0.93089277
37	0x3f7780d9	0.9668098
38	0x3f7dc877	0.9913401
39	0x3f7d1d4a	0.98872817
40	0x3f731cfc	0.949661
41	0x3f629b52	0.8851825
42	0x3f72b943	0.94813937
43	0x3f7dde2f	0.9916715
44	0x3f2da106	0.6782383
45	0x3f2b543b	0.669254
46	0x3f632d7d	0.88741285
47	0x3f6b31f8	0.9187312
48	0x3f63c447	0.8897137
49	0x3f783869	0.96961075
50	0x3f74b8b6	0.95594347
51	0x3f61120a	0.8791815
52	0x3f605a0e	0.8763741
53	0x3f842898	1.0324888
54	0x3e985fd3	0.29760608
55	0x3f285b3b	0.65764207
56	0x3f662d9b	0.8991334
57	0x3f73d792	0.9525081
58	0x3f6816e4	0.9065993
59	0x3f7c353c	0.9851873
60	0x3f7887a8	0.97081995
61	0x3f7f1663	0.99643534
62	0x3f52082b	0.82043713
63	0x3f6a5c02	0.9154664
64	0x3f821a7a	1.016433
65	0x3f61a377	0.8814005
66	0x3fc79551	1.5592443
67	0x3fda5d02	1.7059634
68	0x3f76d0d7	0.96412414
69	0x3f7bd112	0.9836589
70	0x3f7a79fc	0.97842383
71	0x3f8fd8c0	1.1238022
72	0x3f328582	0.69734967
73	0x3f6bfe8f	0.921853
74	0x3f3e49a6	0.7433113
75	0x3f4aa26f	0.79154104
76	0x401168df	2.2720258
77	0x3fe09f36	1.7548587
78	0x3f798ae7	0.97477573
79	0x3f7bbb05	0.98332244
80	0x3f865c48	1.0496912
81	0x3f818f39	1.0121833
82	0x3f64cb53	0.8937275
83	0x3f6ab537	0.9168276
84	0x3f7dbbcf	0.991147
85	0x3f739c2f	0.9516019
86	0x3f6dac04	0.928406
87	0x3f707e2b	0.9394252
88	0x3f2fb6fe	0.686386
89	0x3f7c7824	0.9862082
90	0x3f82865e	1.0197256
91	0x3f813421	1.0094033
92	0x3f5c55b8	0.86068296
93	0x3f7116d0	0.94175434
94	0x3f88a855	1.0676371
95	0x3f8d6dcc	1.1049132
96	0x3f9aca17	1.2092923
97	0x3f78a5fe	0.97128284
98	0x3f78950c	0.9710243
99	0x3f7fe1e0	0.9995403
100	0x3f7bc61a	0.98349154
101	0x3f6cc692	0.92490494
102	0x3faead73	1.3646683
103	0x3f9c2695	1.2199274
104	0x3f453a56	0.7704214
105	0x3f714482	0.9424516
106	0x40157c34	2.3357058
107	0x3f811e82	1.0087435
108	0x3fa7a75a	1.3097947
109	0x3f8d22be	1.1026227
110	0x3f7988d4	0.9747441
111	0x3f782c76	0.9694284
112	0x3f62bb97	0.8856749
113	0x3f6489fb	0.8927304
114	0x3ec0a812	0.37628227
115	0x3e93a789	0.28838757
116	0x3fa9893b	1.3245004
117	0x3f669886	0.9007648
118	0x3fa9130c	1.3208938
119	0x3f925074	1.1430802
120	0x3f74950b	0.9553992
121	0x3fb4fd7c	1.4139857
122	0x3f6085e0	0.8770428
123	0x408c6590	4.387398
124	0x3f741ea7	0.9535927
125	0x3fdeaaab	1.7395834
126	0x3f9d5225	1.2290694
127	0x3f22f279	0.63651234
128	0x3f7889e5	0.9708541
129	0x3f7a26fc	0.97715735
130	0x3f8cd4a3	1.1002392
131	0x3febbe40	1.8417435
132	0x3ec67973	0.38764533
133	0x3fbf4f33	1.4946045
134	0x3f621ea6	0.88328016
135	0x3f40fe86	0.7538837
136	0x3fa6724f	1.3003634
137	0x3f0c89e0	0.5489788
138	0x3f8c7374	1.0972733
139	0x3f86f05b	1.0542101
140	0x3f5d0a10	0.8634348
141	0x3f04d551	0.51887995
142	0x3f526963	0.8219206
143	0x3f41ce8e	0.757058
144	0x3f9811e3	1.1880459
145	0x404d95c5	3.2122662
146	0x405086ad	3.25822
147	0x40276f9f	2.6161878
148	0x3f3d4d15	0.7394574
149	0x3f783dfd	0.96969587
150	0x3f69bee8	0.91306925
151	0x3f8856a2	1.0651438
152	0x3f7422ae	0.95365417
153	0x3eabd3f2	0.3356014
154	0x3f48f1b5	0.78493816
155	0x3f4dd863	0.80408305
156	0x3fa3ebff	1.2806395
157	0x3fea64a4	1.8311963
158	0x3f280307	0.6562962
159	0x3f749f5c	0.95555663
160	0x3f5f94c0	0.8733635
161	0x3f89cf2a	1.0766346
162	0x3d6436da	0.055716373
163	0x3eab3761	0.33440688
164	0x3f584e42	0.8449441
165	0x3f6a6df3	0.9157402
166	0x3f354f95	0.7082456
167	0x3f85b97b	1.0447229
168	0x3f60e982	0.87856305
169	0x3f7fc761	0.99913603
170	0x3f669129	0.90065247
171	0x3f50f4bb	0.8162343
172	0x3f538a7b	0.8263318
173	0x3f559220	0.83426094
174	0x3f862798	1.0480833
175	0x3f88dd1e	1.069248
176	0x3fc4f3e2	1.5386927
177	0x40360dd2	2.8445935
178	0x3f93c690	1.1544971
179	0x3f6d958f	0.92806333
180	0x3f47f3c2	0.7810632
181	0x3db70364	0.089361936
182	0x3f9db2ab	1.232015
183	0x3d48de87	0.049040344
184	0x3f4a97ec	0.79138064
185	0x4029c89b	2.652869
186	0x3f8f702d	1.1206108
187	0xbe5d79c4	-0.21628481
188	0x3f375b58	0.71623755
189	0x3f76778e	0.96276176
190	0x3f847627	1.0348557
191	0x3f751de4	0.95748734
192	0x3f97546f	1.1822642
193	0x3e3303bf	0.17481898
194	0x3fbcc0af	1.4746302
195	0x3fc44295	1.5332819
196	0x3fa59d54	1.2938638
197	0x3fb77935	1.4333864
198	0x3f68991f	0.90858644
199	0x3f7b996b	0.9828097
200	0x3f7f7f2f	0.9980344
201	0x3f7d1290	0.9885645
202	0x3f7eac08	0.9948125
203	0x3f797543	0.9744455
204	0x3f5eb7b7	0.86999077
205	0x3f6f12cc	0.93388057
206	0x3f54cee3	0.83128184
207	0x3f68b486	0.90900457
208	0x3f74ce30	0.9562712
209	0x3f78c150	0.9716997
210	0x3f7db845	0.991093
211	0x3f8010bc	1.0005107
212	0x3f70210b	0.9380042
213	0x3f8177d3	1.0114692
214	0x3f7d685c	0.98987365
215	0x3f671f6a	0.9028231
216	0x3f86d40f	1.0533465
217	0x3f88be69	1.0683109
218	0x3f73ad04	0.95185876
219	0x3f770980	0.9649887
220	0x3f7a1d2a	0.9770075
221	0x3f70916a	0.93971884
222	0x3f6a29ea	0.91470206
223	0x3f6b2ead	0.91868097
224	0x3f718d5b	0.94356316
225	0x400da4de	2.2131877
226	0x3f82f7a0	1.0231819
227	0x3f7a85ff	0.9786071
228	0x3f89a1ba	1.075248
229	0x3f80786f	1.0036753
230	0x3f7cef82	0.9880296
231	0x3f781cf7	0.96919197
232	0x3f754ba2	0.9581853
233	0x3f71d180	0.94460297
234	0x3f7f7cc2	0.9979974
235	0x3fce5bc9	1.6121761
236	0x3f7ab5fe	0.9793395
237	0x3f6c9d75	0.9242776
238	0x3f8328c9	1.0246822
239	0x3f80b9a7	1.0056657
240	0x3f83383f	1.025154
241	0x3fa823cd	1.3135926
242	0x3f63f0b4	0.8903916
243	0x3f683109	0.9069982
244	0x3f561092	0.83619034
245	0x3f77b120	0.96754646
246	0x3f81830f	1.0118121
247	0x3f80f5e8	1.0075045
248	0x3f7ce4d5	0.9878667
249	0x3f7ecd51	0.9953204
250	0x3f83be32	1.0292418
251	0x3f971bd6	1.180537
252	0x3f708b66	0.93962705
253	0x3f772347	0.96538204
254	0x3f8b3c2d	1.0877739
255	0x3f79b264	0.9753783

cnn_branch.1.bias f4 [16, 10, 10]
0	0x3c0873bc	0.0083283745
1	0x3d04d094	0.032425478
2	0x3e0a6f81	0.13519098
3	0x3e026717	0.12734638
4	0x3e34c509	0.17653288
5	0x3d7cd074	0.061722234
6	0x3c7f425f	0.015579789
7	0x3cdc246a	0.026872832
8	0x3c8062eb	0.015672168
9	0x3877c7db	5.907552e-05
10	0x3c80c609	0.01571943
11	0x3d03bb0c	0.032160804
12	0xbcecbf90	-0.028899938
13	0x3e2f4322	0.17115453
14	0x3ebf5fca	0.3737777
15	0x3d6cf5f4	0.057851747
16	0x3dd2a9bc	0.102862805
17	0xbd67788d	-0.05651145
18	0xbcd17e6c	-0.025572978
19	0x3b831751	0.0040005823
20	0xbbe27749	-0.0069111926
21	0xbc1a8f2a	-0.009433547
22	0xbe705734	-0.23470765
23	0xbce3e75e	-0.027820285
24	0xbd7069d4	-0.058694676
25	0xbccb18ba	-0.024792064
26	0xbe33b2bf	-0.17548655
27	0xbe839d2f	-0.2570586
28	0xbcc84d48	-0.024450913
29	0x38ac47a6	8.214945e-05
30	0xbccef895	-0.025265018
31	0xbb8c5c8e	-0.0042834943
32	0xbd1d4286	-0.03839352
33	0xbd2eb6a0	-0.042654634
34	0xbcc6ce80	-0.024268389
35	0x3cbb095b	0.02283161
36	0xbc539b77	-0.012915484
37	0xbc71c016	-0.0147552695
38	0xbc9bb893	-0.01900891
39	0xbc2d2af9	-0.0105693275
40	0x3bc949eb	0.006142845
41	0x3cb731fa	0.022362698
42	0x3df252bc	0.118321866
43	0x3d3313d4	0.04372008
44	0xbd88e97b	-0.06685158
45	0xbd84310c	-0.064546674
46	0xbc91c2a8	-0.017793015
47	0xbd716a21	-0.058939103
48	0xbcc0d461	-0.02353877
49	0xb9df56a4	-0.00042598427
50	0x3c1493e2	0.009068461
51	0x3cd76451	0.026292952
52	0x3e4f218e	0.20227644
53	0x3dc3a3bd	0.09552715
54	0x3d0227c1	0.031776194
55	0xbc987687	-0.018611206
56	0x3c99f211	0.018792184
57	0xbc7676bb	-0.015042956
58	0xbcbe7897	-0.023250861
59	0xbbce0459	-0.0062871394
60	0xbd9cb507	-0.07651716
61	0xbe63dffd	-0.22253413
62	0x3e3114c6	0.1729308
63	0xbde0b094	-0.109711796
64	0x3d0105e1	0.031499747
65	0x3c4a8907	0.012361771
66	0xbef93cc2	-0.48679167
67	0xbebf58a8	-0.37372327
68	0x3b688636	0.0035480387
69	0x3b5adfb6	0.0033397502
70	0xbe47f20c	-0.19525927
71	0xbf102ebf	-0.5632133
72	0x3e804a5e	0.25056738
73	0xbe1717f4	-0.14755231
74	0xbe790bcc	-0.24320906
75	0xb81e0f86	-3.7684593e-05
76	0xbf3b4173	-0.7314674
77	0xbe3c3ff9	-0.18383779
78	0x3b49e607	0.0030807273
79	0xbb56f111	-0.0032797495
80	0x3ab7f3c0	0.0014034435
81	0xb4f93880	-4.6420973e-07
82	0x3dd0f52d	0.102030136
83	0x3b6eac11	0.0036418478
84	0x3c68ad30	0.014201447
85	0x3df50958	0.11964673
86	0x3dc81224	0.09769085
87	0x3b087039	0.0020818843
88	0x3dc62fd2	0.0967709
89	0x3c9fe325	0.01951749
90	0xbc5cd006	-0.013477331
91	0xbc03ca9b	-0.00804391
92	0x3e55dcdb	0.20885031
93	0x3d26879c	0.04065667
94	0x3c9c31ac	0.019066654
95	0x3d64cea8	0.055861145
96	0xbe0bff22	-0.13671544
97	0x39e3d23a	0.00043453445
98	0xbc34ec30	-0.01104264
99	0x3a9efbc2	0.0012129473
100	0xbc0a17dc	-0.00842854
101	0xbd27bd15	-0.040951807
102	0x3d0cefc6	0.034408353
103	0x3d66da48	0.056360513
104	0x3cc738a5	0.024319002
105	0x3e672425	0.22572382
106	0x3d3ac87b	0.04560135
107	0xbd313830	-0.043266475
108	0x3dada1f9	0.084781595
109	0x3d904c77	0.070458345
110	0xbd82171d	-0.06352065
111	0xbdb11a2d	-0.08647571
112	0xbd8d8839	-0.06910748
113	0xbd790b96	-0.060802065
114	0xbdac6d26	-0.08419256
115	0x3e9d4d31	0.30722955
116	0x3e92e9fd	0.28694144
117	0x3c1f1216	0.009708902
118	0x3de01218	0.10940951
119	0x3db22ef4	0.08700362
120	0xbd997373	-0.07492723
121	0xbf1cdd3d	-0.6127508
122	0xbd9ed592	-0.07755579
123	0x3d57f281	0.052721504
124	0xbd275398	-0.040851206
125	0xbeb4c5ab	-0.3530706
126	0xbcccfc50	-0.025022656
127	0xbdf36a6c	-0.11885533
128	0x3d4567a2	0.048194535
129	0xbc5a8f99	-0.0133399
130	0xbd729abe	-0.059229605
131	0xbeb1711e	-0.34656614
132	0xbf6185ed	-0.8809498
133	0xbeb727da	-0.35772592
134	0x3d04de68	0.032438666
135	0xbda86805	-0.08222965
136	0xbf019c39	-0.50629
137	0xbe290591	-0.1650603
138	0x3d86377a	0.0655355
139	0x3b88c745	0.0041741454
140	0x3d195668	0.03743592
141	0x3e453d63	0.19261698
142	0xbd1b1967	-0.037866022
143	0xbc898947	-0.016789092
144	0x3f67c2d2	0.9053165
145	0xbece7c3f	-0.40329167
146	0xbe8e232c	-0.2776121
147	0x3de00c8e	0.109398946
148	0x3c4925d6	0.012277087
149	0x3b7ac826	0.003826627
150	0xbdd3e1b4	-0.10345784
151	0xbe141a19	-0.1446308
152	0xbe75ccc7	-0.24003898
153	0xbdcc101d	-0.09964011
154	0x3dcf4de8	0.10122281
155	0x3e1e795f	0.15475987
156	0x3f027907	0.50965923
157	0x3dc6e487	0.09711557
158	0x3c212439	0.009835296
159	0x3b8f7f5c	0.004379196
160	0x3cfb74ba	0.030695308
161	0xbe03a7f9	-0.12857045
162	0x3d1f8cb1	0.038952533
163	0x3e091355	0.13386281
164	0x3d46973b	0.04848407
165	0x3c41659d	0.011804012
166	0xbf1deb54	-0.6168721
167	0x3d87b019	0.06625385
168	0xbd932614	-0.07184997
169	0x3d02f9d1	0.031976525
170	0xbdf81bfa	-0.12114711
171	0xbe85e8ae	-0.26154083
172	0xbd9348ec	-0.07191643
173	0x3cf9e3f6	0.030504208
174	0xbda4caec	-0.08046517
175	0xbebfb057	-0.37439224
176	0xbf223e33	-0.6337616
177	0x3a8f01fe	0.0010910628
178	0xbe4016e3	-0.1875873
179	0x3caa1642	0.020762566
180	0x3cfb02cf	0.030640988
181	0xbe3b4f80	-0.18292046
182	0x3d5d08ec	0.053963587
183	0x3e1cb7f5	0.15304549
184	0x3f0792db	0.5295846
185	0xbf8ab331	-1.0835935
186	0x3e650b00	0.22367477
187	0x3ea7258d	0.32645836
188	0x3db045b7	0.08607047
189	0xbbb399a9	-0.005480964
190	0x3d03fbfd	0.032222737
191	0x3e5b5acc	0.21421355
192	0xbd944d81	-0.07241345
193	0x3e351022	0.17681935
194	0x3e3b8ef8	0.18316257
195	0x3e05af6a	0.13055196
196	0x3da11b16	0.07866494
197	0x3f430a6c	0.7618778
198	0x3d595bfc	0.05306624
199	0xbb0db95d	-0.0021625378
200	0xbbb3e0ae	-0.0054894304
201	0xbb165a81	-0.0022942128
202	0xbc17f0f3	-0.009273755
203	0x3bf7a52f	0.007557533
204	0x3cfc8be1	0.030828418
205	0xb8f66511	-0.00011749019
206	0xbb02f9b8	-0.001998527
207	0x3c006d76	0.0078385975
208	0x39b1d831	0.00033921146
209	0x3b4b7de9	0.003105039
210	0xbacbb254	-0.0015540817
211	0x3b41c63f	0.0029567627
212	0xbd735848	-0.059410363
213	0xbcc181d5	-0.023621479
214	0x3db6a97a	0.08919044
215	0x3d3216da	0.043478824
216	0x3d91ee3d	0.071255185
217	0x3cbebeed	0.0232844
218	0x3c92574f	0.017863898
219	0x3c1d13d1	0.009587244
220	0x3c5f721d	0.013638047
221	0xbbfa6dc2	-0.0076424787
222	0x3cea7844	0.0286218
223	0x3c883a3c	0.01662933
224	0xbb377a2a	-0.00279964
225	0x3e0e84e8	0.13917887
226	0xbda1f2d9	-0.07907648
227	0xbcd66de4	-0.026175447
228	0x3cd627c5	0.02614201
229	0x3c9f0b1a	0.019414473
230	0xbac591e7	-0.001507339
231	0x3a4be67f	0.0007778182
232	0x3c3fa9ca	0.011698196
233	0xbbe20474	-0.0068975035
234	0x3ca42160	0.020035446
235	0x3e120c6e	0.14262554
236	0xbc24d25e	-0.010059921
237	0x3d084954	0.033273056
238	0x3c7bcdb7	0.01536887
239	0x3c86da1f	0.01646143
240	0x3c278b80	0.0102261305
241	0x3ad840a7	0.001649876
242	0xbca8bd2f	-0.020598022
243	0xbda8b0cf	-0.082368486
244	0x3d99b499	0.075051494
245	0x3d36e894	0.044655398
246	0x3d53bf6f	0.051696237
247	0x3e102473	0.14076404
248	0x3d8a4f81	0.067534454
249	0x3c1e1a36	0.009649804
250	0x3b0b7238	0.0021277796
251	0xbc2a4377	-0.010392061
252	0xbb6964f1	-0.0035613144
253	0x3d45516e	0.04817336
254	0x3e6c21be	0.23059747
255	0x3d499dd0	0.049222767

fc.0.weight f4 [1, 1600]
0	0xbeabe929	-0.33576325
1	0xbeecd83b	-0.4625872
2	0xbf078005	-0.5292972
3	0xbef1fa5e	-0.47261328
4	0xbea114bb	-0.3146113
5	0xbe4da8a2	-0.2008386
6	0xbe1d2637	-0.15346609
7	0xbe2085da	-0.1567606
8	0xbe084ecb	-0.13311307
9	0xbd0ffb92	-0.035152026
10	0xbeaf4844	-0.34234822
11	0xbe861417	-0.26187202
12	0xbad6c3ce	-0.0016385259
13	0xbef9748b	-0.48721728
14	0xbf0ca84d	-0.54944307
15	0x3dcd757b	0.10032173
16	0x3f489c6d	0.78363687
17	0x3ee76ca5	0.45200077
18	0x3d1bc4ed	0.0380296
19	0xbcd861ec	-0.02641388
20	0xbed51b6b	-0.4162248
21	0x3d4a7879	0.049431298
22	0x3fa8a788	1.3176126
23	0x3f108205	0.56448394
24	0x3f2ce556	0.6753744
25	0x3f3c5220	0.7356281
26	0x3f9180b4	1.1367402
27	0x3f572dd8	0.84054327
28	0xbad1bf80	-0.0016002506
29	0xbe1f5e88	-0.15563405
30	0xbef8a19e	-0.48560804
31	0xbe463394	-0.19355613
32	0xbd87d134	-0.06631699
33	0xbe9a3a67	-0.30122682
34	0x3ee8941a	0.45425493
35	0x3da6aeba	0.08138795
36	0x3ce981ab	0.028504213
37	0xbe0edc53	-0.13951235
38	0xbe8fd2a7	-0.28090402
39	0xbe1639d0	-0.14670491
40	0x3e3a0c74	0.18168813
41	0x3ef2729b	0.47353062
42	0x3ee66830	0.45001364
43	0x3e7ed004	0.24884039
44	0xbe80cc87	-0.25156042
45	0xbed85cd1	-0.42258313
46	0xbee978eb	-0.45600066
47	0xbed1a1d0	-0.40943766
48	0xbe53f9c9	-0.20700754
49	0xbd2d411c	-0.04229842
50	0x3ea41d50	0.32053614
51	0x3f0c34af	0.5476789
52	0x3f42f563	0.7615568
53	0x3eea5dd7	0.4577472
54	0xbeb9d659	-0.36296347
55	0xbe0173df	-0.12641858
56	0x3d321445	0.04347636
57	0x3e1e6906	0.15469751
58	0x3e0515d9	0.12996615
59	0x3e09951b	0.13435785
60	0xbe8cc332	-0.27492672
61	0xbee6d7a2	-0.4508639
62	0x3e1513bc	0.1455831
63	0xbe9234f4	-0.28556025
64	0xbe98c838	-0.29840255
65	0xbd7a023d	-0.06103729
66	0xbf938ad0	-1.1526737
67	0xbf91c664	-1.1388669
68	0x3e2b3d13	0.16722517
69	0x3e55a21b	0.2086262
70	0xbf0a2762	-0.53966343
71	0xbf449712	-0.76793015
72	0xbc94f9be	-0.018185493
73	0xbeb10d3f	-0.34580418
74	0x3f064cbb	0.5246083
75	0x3e8c3c27	0.27389643
76	0xbfe9bc8a	-1.8260663
77	0xbf967af2	-1.175627
78	0x3eab9450	0.3351159
79	0x3c95e60d	0.018298173
80	0xbf12e7ed	-0.5738514
81	0xbe57d388	-0.21076787
82	0x3ec08341	0.3760014
83	0x3d3d7d9f	0.04626238
84	0xbe97bc76	-0.29635972
85	0xbf323227	-0.69607776
86	0xbf9cef4d	-1.2260529
87	0xbe684f40	-0.22686481
88	0x3f05d170	0.522727
89	0x3e8a6403	0.27029428
90	0xbe9db9e9	-0.308059
91	0xbe079aa0	-0.13242579
92	0x3f19d485	0.60089904
93	0x3e3570dd	0.17718835
94	0xbf16e00f	-0.58935636
95	0xbf692f5c	-0.9108789
96	0xbf943e21	-1.158146
97	0xbe19d45b	-0.15022413
98	0x3f216d62	0.6305753
99	0x3e624416	0.22096285
100	0x3da8163e	0.08207367
101	0x3d90c369	0.070685215
102	0xbf39e305	-0.7261203
103	0xbef8b8b2	-0.4857841
104	0x3caad716	0.020854514
105	0x3ebd1910	0.36933184
106	0x4001973d	2.0248559
107	0x3f0bffc0	0.5468712
108	0xbf2d18ae	-0.67615783
109	0xbecf8cc4	-0.40537083
110	0x3ebc3192	0.3675657
111	0x3eaa0b59	0.33211783
112	0x3eea9933	0.45820007
113	0x3f272c8a	0.65302336
114	0xbea39a04	-0.31953442
115	0xbf191190	-0.59792423
116	0x3f355df7	0.70846504
117	0xbd55ed34	-0.052228168
118	0xbf512b5a	-0.81706774
119	0xbee1a269	-0.44069222
120	0xbea378ed	-0.31928197
121	0xbf893ee9	-1.0722324
122	0xbf989bfa	-1.19226
123	0xc06ca60f	-3.6976354
124	0x3d8d8881	0.06910802
125	0xbfbf137c	-1.4927821
126	0xbf4a2e20	-0.7897663
127	0xbe62834c	-0.22120398
128	0x3eefb355	0.46816507
129	0x3f182352	0.59428895
130	0xbf85c76b	-1.0451483
131	0xbfbd28b0	-1.4778042
132	0xbf41fe11	-0.757783
133	0xbf8ec141	-1.1152726
134	0xbe398203	-0.18116002
135	0xbe5ae2ad	-0.21375532
136	0x3f3b777d	0.732292
137	0x3f156071	0.5835028
138	0x3f44dfe4	0.7690413
139	0x3f31f77a	0.69518244
140	0xbe9e88b0	-0.3096366
141	0xbef65150	-0.48108912
142	0x3f3d19ac	0.738673
143	0x3edd8910	0.43268633
144	0x3f8e6243	1.1123737
145	0x40056c96	2.0847526
146	0x400bf0f5	2.1865819
147	0x400ef294	2.2335558
148	0x3e897db4	0.26853716
149	0x3e4caee9	0.19988598
150	0x3eadf8d3	0.339789
151	0x3e4b2e66	0.19841918
152	0x3f1db141	0.61598593
153	0xbe019134	-0.12653047
154	0x3de7c531	0.11316908
155	0x3e46b28c	0.19404048
156	0x3fa43641	1.2829057
157	0x3fe45416	1.7838161
158	0x3d0c45c4	0.03424622
159	0x3cd713de	0.02625459
160	0x3ee91c66	0.4552948
161	0x3ef0eb5d	0.47054568
162	0xbeb1a4fe	-0.34696192
163	0xbe7f085a	-0.2490553
164	0x3e0fad43	0.14030938
165	0x3f28ef0c	0.65989757
166	0x3efb6f35	0.49108282
167	0x3f3b9528	0.7327447
168	0x3e27a555	0.16371663
169	0xbed59634	-0.41716158
170	0xbed4aa57	-0.4153621
171	0xbe9a94c2	-0.30191618
172	0xbf4cf753	-0.80064887
173	0x3e054137	0.13013159
174	0x3f08de24	0.5346396
175	0x3f63a760	0.8892727
176	0x3f6b8ee1	0.9201489
177	0x3fd1f5a8	1.6403093
178	0x3f2e5466	0.6809753
179	0xbe8d2b50	-0.27572107
180	0xbf6cc3d9	-0.9248634
181	0xbf2fa8d9	-0.68617016
182	0xbf8552a5	-1.0415846
183	0x3f65705c	0.8962457
184	0x3fd1be7e	1.6386259
185	0x400d0d34	2.2039309
186	0xbfa919fa	-1.3211052
187	0xbfed09e0	-1.8518639
188	0xbeafd277	-0.3434026
189	0x3db9f685	0.09080223
190	0xbf15afcc	-0.5847137
191	0xbf48ee7c	-0.784889
192	0xbf1a50a0	-0.60279274
193	0x3f7d5073	0.9895088
194	0x3fa15a28	1.2605639
195	0x3fc4f65f	1.5387686
196	0xbf815ca0	-1.0106392
197	0xbff0adf7	-1.880309
198	0xbee17a49	-0.4403861
199	0x3e40ad6b	0.18816154
200	0x3e0061a6	0.1253725
201	0x3d70c634	0.05878277
202	0xbea6a26e	-0.325458
203	0xbe3fc2cf	-0.18726657
204	0x3e0cf12a	0.13763872
205	0x3c1d67fe	0.009607313
206	0xbe1a821c	-0.15088695
207	0xbe3a7bdc	-0.18211311
208	0xbd7ebca5	-0.062191624
209	0xbe520036	-0.20507893
210	0x3e1bb9c4	0.15207583
211	0x3dd0befe	0.10192679
212	0xbf0f62ab	-0.5600993
213	0xbed953ad	-0.42446652
214	0xbdc1b251	-0.09457839
215	0xbd3a8b1c	-0.04554282
216	0x3f352abf	0.7076835
217	0x3f07d3ee	0.53057754
218	0x3d721cb6	0.059109412
219	0xbe1f07f2	-0.15530375
220	0x3e5c7c5e	0.21531817
221	0x3cf1cafe	0.02951574
222	0xbdb882ae	-0.090093
223	0xbf23e1db	-0.64016503
224	0x3d70213a	0.058625437
225	0x3fbc3b34	1.4705567
226	0x3f728602	0.9473573
227	0x3f1e6749	0.6187635
228	0x3edfc34b	0.43703684
229	0x3e41c8dd	0.1892428
230	0x3e28c234	0.16480333
231	0xbccb4c8a	-0.02481677
232	0xbe8172b2	-0.25282818
233	0xbf2909e1	-0.660307
234	0xbc92e837	-0.017932994
235	0x3f77b550	0.96761036
236	0x3f2759fd	0.65371686
237	0x3eab0598	0.33402705
238	0x3ebb8d4e	0.36631244
239	0x3e7a16cd	0.2442276
240	0xbf0c6285	-0.5483783
241	0xbf9e5773	-1.2370437
242	0xbe839f9d	-0.25707713
243	0xbe354d8c	-0.17705363
244	0x3ec76abb	0.38948616
245	0x3f17de0a	0.5932318
246	0x3eb92265	0.36159053
247	0x3ed81f52	0.42211396
248	0x3d8f5835	0.06999246
249	0xbde93797	-0.11387556
250	0xbf0d6f97	-0.552484
251	0xbf8ba406	-1.0909431
252	0xbe65568b	-0.22396295
253	0x3cdca460	0.026933849
254	0x3f117452	0.56818116
255	0x3f466ee3	0.7751295
