gio_notebooks/wall-robot-navigation_Refined_info/CNN_avg_acc0.92125_cnn2_d1_e66/model.pt (torch, 34381 bytes, 11 tensors)

cnn_branch.0.weight f4 [16, 3, 3, 3]
00000000: e020 b63e 2606 883e 5250 06bf 8c87 26be
00000010: b3e6 e03c 5efb 1d3e b0e1 873e a861 a63e
00000020: ebe3 a23e 91cc c53e 0c68 b8bd 2c3a 38bd
00000030: 9c3a d8be a2c2 ccbe f6ce 9c3e d8bb 4abd
00000040: ae4f c0be ab9b 2ebe cbc9 40bb b4bb 25be
00000050: 51c9 603c 86b8 7b3e 089c 35be b411 8bbd
00000060: 1b24 b3be 9e3c 143f bcee e53e 902e b7be
00000070: 7c44 07be f5e1 0e3d 96e2 943e 9728 ae3b
00000080: 33a3 81be aedf 2b3d 3f81 91be d240 d7be
00000090: 19a0 c6be 3099 3c3f f32f eabc 1c25 2cbe
000000a0: 9408 a5bc 6873 0bbf a6a8 5abe 71c3 e5be
000000b0: 4415 ecbe 029d 823e 7abf a2be 06b2 aa3d
000000c0: e29b eebc 7d9d abbe 6f99 813e 9306 033f
000000d0: c928 253e 5846 9f3e 3bde d93e ef28 bfbd
000000e0: 672e 963e f3a9 7fbe 63f6 88be 7738 073e
000000f0: 74b0 3bbd 800a 78bd af2c e2be e1e0 22be
00000100: e846 4e3d 5337 a6be 5a20 50bd ecfb 023e
00000110: 8160 b2bd 639f f23e 770b e7be 1e8c dfbe
00000120: 47da 703e 522a 1f3e 68f0 4e3d ca00 d9bd
00000130: 11dd 31bd aabb cfbe 3bee 80be ea44 a1be
00000140: 482f a8be 6963 0c3f d065 c83e 0ec0 45be
00000150: 2edf 613e e10c fbbd b756 95bd d87a d2bd
00000160: cfa2 013d 214a 2bbe c97b a83d 0733 813e
00000170: 56af e8bd 8dd6 be3d 8f4a 39bf d91c 41be
00000180: 59f4 b23c 3988 8d3e 669b 17bf 009f 7bbd
00000190: 49d0 643e 8669 673e ae47 7f3d 07d2 adbe
000001a0: d540 92be af82 e9bd cc94 c9be 7d9b 613e
000001b0: 6cea b83e 262b 3a3e 189a 3c3e f66c 37bc
000001c0: 41e9 4ebf db92 d13e 43f3 003f a484 cbbe
000001d0: c821 a73d 10cf 54be 0ed1 b13e 522a de3e
000001e0: b727 113e e139 6dbe 4fad 7abd 4164 ffbd
000001f0: 1493 67bd b52d e2be 20a9 8c3d 24fe d4bd
00000200: c3be aabd 1ef4 16bd a61c 56bd 3903 67bf
00000210: 98d3 973e 3c60 bc3d da34 853e 07e6 633c
00000220: ed54 c93e 4f81 d53e b12c 10be 4e9f dd3e
00000230: 98b7 1b3d 5fc5 b03e 7ed1 193e 5e06 4ebb
00000240: 14f0 1cbd 5b2b b23d 6e6b 7c3e bbf5 f13d
00000250: 0608 c1be 6d22 6cbf f7a8 ee3d a40a ecbe
00000260: 6acc 17bf 281f 103e c70e 2d3e 8c53 89bd
00000270: 604a 0d3c e905 10be 2c21 4b3d 1045 96bd
00000280: 1440 813e d842 a33e f6e8 d43b 13e8 0b3d
00000290: 5851 1cbe d327 883e f19b f23e c913 473d
000002a0: fb4c 33be 694b b0bd a383 ba3e f0b5 a2be
000002b0: 3f54 333e a940 2b3e c7e1 8abe 2336 423f
000002c0: 764e b8be b452 10be 1dfe 9c3e 4ddc 1dbe
000002d0: 28e2 fdbd 7490 ccbe f24a 723e 1241 9d3e
000002e0: 30e4 9a3d e9fd 083f 6543 e83c 569e 373d
000002f0: 48c2 9ebe d153 f5bc ad0f d43d 6c35 ff3e
00000300: 2994 443e 2b63 ddbe 499f a9be ba0e 293d
00000310: ee40 85be d5a7 8bbd 8a76 28bf d447 2abe
00000320: ad5f 933e c897 253e 403d 9abe d675 4abf
00000330: 7264 e3be 5566 6c3e 4fe1 703d a346 263f
00000340: 7b58 583e 3930 c83d fa79 273e cdf1 47be
00000350: 78ac f43e f91a 893e 47b2 d4bd 616c 0bbe
00000360: 85c8 50be 966f 06bf c424 3c3e 392c 95be
00000370: 430c 343e 38e9 673e 5def 273f 3e9d e13c
00000380: 52aa cabd 17fb b5bd c627 e0be 73d2 4d3e
00000390: e7ea 5b3d 9df5 b23c f7cf 97bd 65f1 513d
000003a0: c40c 08bf d7f7 053f d735 bf3e e67b e8bd
000003b0: b0bb 8a3e f209 83be ec7d 6fbe a24f 343e
000003c0: b49f af3e a164 013f 7eec dbbe 9f34 b93d
000003d0: 98d7 103e 43d0 4ebd d9ba 713d c191 b3be
000003e0: 1f87 c9bd 4bfa 6a3e 4b81 75bf c6db 65bd
000003f0: 174b 683d 823e debd 3cf0 bf3d 23ff 97bd
0.35571957 0.2656719 -0.5246631 -0.16262645 0.027453756 0.1542792 0.26539373 0.3249638
0.31814513 0.38632634 -0.0900422 -0.044977352 -0.42232215 -0.39992243 0.3062665 -0.049495548
-0.3756079 -0.1705157 -0.0029417153 -0.16184884 0.013719873 0.24582109 -0.17735302 -0.06790486
-0.34988484 0.57904994 0.44908702 -0.35777712 -0.13209718 0.03488346 0.2907912 0.0053148973
-0.25319824 0.041961364 -0.2841892 -0.4204164 -0.3879402 0.73671246 -0.028587317 -0.16811031
-0.020145692 -0.5447297 -0.21353397 -0.44875672 -0.46109974 0.25510412 -0.3178671 0.083347365
-0.029127065 -0.33518592 0.25312373 0.51181906 0.1612884 0.31108356 0.4255236 -0.09333979
0.29332277 -0.24967174 -0.26750478 0.13205133 -0.045822576 -0.06055689 -0.44174716 -0.15906097
0.05036059 -0.32464084 -0.050812103 0.12791413 -0.08709813 0.47387227 -0.45125934 -0.43661588
0.23520766 0.15543488 0.050522238 -0.105958536 -0.043423716 -0.40572864 -0.25181755 -0.3149789
-0.32848573 0.5483919 0.39140177 -0.19311544 0.22057793 -0.12258316 -0.0729193 -0.10277337
0.031649407 -0.16727497 0.08226735 0.25234243 -0.11361568 0.09318266 -0.7237939 -0.18858661
0.02184503 0.27642992 -0.59221494 -0.06143093 0.2234508 0.22598848 0.06232422 -0.339493
-0.28565088 -0.11401879 -0.39371336 0.2203197 0.3611635 0.18180522 0.18418157 -0.011195412
-0.8082467 0.40932354 0.5037119 -0.39749634 0.0816074 -0.20782113 0.3472981 0.43391663
0.14175306 -0.2316661 -0.061200436 -0.12470294 -0.05653675 -0.44175497 0.068681955 -0.10400036
-0.08337166 -0.036853902 -0.052273415 -0.9023929 0.2965362 0.09198043 0.26016885 0.013909823
0.39322606 0.41700217 -0.14079548 0.43285602 0.038016886 0.34525582 0.15021321 -0.00314369
-0.038314894 0.08699676 0.24650356 0.118144475 -0.37701434 -0.9224003 0.11653321 -0.46101868
-0.59296286 0.14074385 0.16900168 -0.067053884 0.008623689 -0.14064755 0.049592182 -0.073373914
0.252442 0.31886935 0.0064974977 0.03415687 -0.15265405 0.26592883 0.473846 0.048602853
-0.17509834 -0.08608133 0.36428556 -0.31779432 0.17512606 0.16723885 -0.2712538 0.75863856
-0.3599736 -0.14094049 0.30662623 -0.1541607 -0.123966515 -0.3995396 0.23661402 0.30713707
0.075630546 0.53512436 0.028352449 0.044828735 -0.310076 -0.029947193 0.103545524 0.49845445
0.19197144 -0.43239722 -0.33129337 0.04127381 -0.260261 -0.06819121 -0.65805876 -0.16628963
0.28783932 0.16171181 -0.30124855 -0.79086053 -0.4441257 0.23085912 0.05880862 0.64951533
0.21127503 0.09774823 0.16355124 -0.19525833 0.47787833 0.2677839 -0.10385566 -0.13615562
-0.20388992 -0.52514017 0.183734 -0.29135302 0.17582802 0.2264756 0.65599614 0.0275408
-0.09895767 -0.08885782 -0.43780345 0.20099811 0.053690817 0.021845633 -0.07412713 0.051255602
-0.5314448 0.523313 0.37345764 -0.11351757 0.2709632 -0.25593525 -0.23387879 0.17608503
0.3430153 0.5054417 -0.42953867 0.0904324 0.14144742 -0.050491583 0.059016082 -0.3507214
-0.098402254 0.22947042 -0.9590041 -0.056117795 0.056712236 -0.10851766 0.09371993 -0.0742171

cnn_branch.0.bias f4 [16]
00000000: a844 273e cccf 4e3c 1658 03be 2536 8dbd
00000010: 8520 2c3d 4b3a 16be 30d0 c33d 65e9 32be
00000020: 6570 3dbe 967c 3fbe d0e7 1fbd 9b84 043e
00000030: 8685 3abe c7cd 233e c7a9 9dbd 59e0 663d
0.16334784 0.012622785 -0.12826571 -0.06895093 0.0420232 -0.14670675 0.09561193 -0.17471845
-0.18499906 -0.1869987 -0.039039433 0.1294121 -0.18214998 0.15996467 -0.07698398 0.0563663

cnn_branch.1.weight f4 [16]
00000000: 85af 323f bb0d 823f 70fe 5b3f ad21 653f
00000010: 826e 7b3f d564 403f 3cae 083f 5167 9e3f
00000020: c68b 483f 4d91 2540 115b 6e3f 2059 503f
00000030: 9353 083f 283d 3d3f 4f77 363f 4fcc 3b3f
0.6979907 1.016044 0.85935116 0.8950451 0.98215497 0.7515386 0.5339086 1.237528
0.7833828 2.5869935 0.93107706 0.81385994 0.53252524 0.7392144 0.712758 0.73358625

cnn_branch.1.bias f4 [16]
00000000: 37ee a7be dbc3 69be 8c9c bebd 6295 f6bd
00000010: 9163 2ebe 89db 9cbd 648e 72be 67e0 e7bd
00000020: 6b86 d5bd d5cf 8dbf a406 b7be d1cc 5fbd
00000030: 4ae5 8ebe 3f5f 38be 5f2b dcbe a8e1 e1bd
-0.3279893 -0.22828619 -0.09307203 -0.12040211 -0.17030169 -0.076590605 -0.2368713 -0.11322098
-0.10426029 -1.107905 -0.35747254 -0.054638688 -0.2790931 -0.18005084 -0.4300184 -0.11029369

cnn_branch.1.running_mean f4 [16]
00000000: f479 a73e 8caa a8be c2f0 06bf e36e 47be
00000010: a441 033d df7f 833b 4c19 ba3e 99ff 87be
00000020: a17a b3bd 47a3 d0be 1943 59be c38a bfbd
00000030: 8dc8 3d3e 6dd2 1dbc 48c9 1b3f 7631 76bd
0.3271023 -0.32942617 -0.5271112 -0.19475894 0.03204502 0.004013046 0.36347425 -0.26562193
-0.08763624 -0.4074957 -0.21217002 -0.093526386 0.18533535 -0.009632689 0.60854006 -0.060105763

cnn_branch.1.running_var f4 [16]
00000000: 0790 a63d 121b 123e e650 553e a031 4a3e
00000010: 0d07 173e 2f5c 153e 7673 173e 810c c33d
00000020: 48ca b93d 7ce9 193e 66f7 af3d 6c92 323e
00000030: 103e 173e 2b44 0c3e 11db 4c3e ff6a 213e
0.0813294 0.14268139 0.20831642 0.19745493 0.14748783 0.14585947 0.14790139 0.09523869
0.09071785 0.15030473 0.085921094 0.17438668 0.14769769 0.13697879 0.20005442 0.15763472

cnn_branch.4.weight f4 [32, 16, 3, 3]
00000000: a076 4bbc fd2c 4a3d b8cd 9b3b b2df 81bd
00000010: ec59 843d 4a74 923d 2982 163d 9d30 363e
00000020: 91e7 babc c64b 6abd 1af8 bebd 543f 97bd
00000030: 9dc2 f43d aeda 703d 1f29 3bbe c35b 23bd
00000040: 258c cebb 6a6d 923c b015 3dbd 03ec 7abd
00000050: b05a 77bd 3f54 243d 037e ac3c 997b a7bc
00000060: ca40 b13d 8262 50bd c80a 49bc 3c2f 94bd
00000070: b22a cdbc 8078 653d 417c 133d 851c 133d
00000080: 11c4 46bd 7d2d d3bc 1a76 04be 00c1 dfbd
00000090: 344a 2dbb 4dc5 333d 98fa 0dbd a707 ccbd
000000a0: 21a3 173d d510 d93d b0d8 96bc 3585 2ebd
000000b0: f72a 973d 2173 eebd e9cb bc3d e49b c23b
000000c0: bef3 afbd 9624 9fbd 4fe5 053e 8ce4 0a3d
000000d0: ac27 d4bc 08dc babc 6439 9fbc ee83 873c
000000e0: 9175 493e 30e5 8c3d f930 023e 1fcc a7bd
000000f0: e6d8 423a 4600 08bd 38e1 363e be6e 213e
00000100: 8b04 46bd fea7 0abe f6ac 5b3e 30bd 153d
00000110: 156c 3c3e 8fd2 0c3a fc1f 273e 4a84 4cbd
00000120: ebb4 09bd 84dd 60bd fd4d 34bd f0bf 0abe
00000130: 0756 e4bd 1c1d 14be 1a74 73bd 094c f2bd
00000140: ef52 a4bd 8d9f 17bd 161f a53d 4cdc 13bd
00000150: 22ce 623d 4c39 763d 6da9 54bd 7ef7 893c
00000160: bb6d 053e c3aa e8bd 168d 1b3d af89 ad3c
00000170: 51f8 21bd 7d3f 92bc d1a4 aa3d e4b6 08be
00000180: 4448 9cbd dda6 d8bc fe55 2c3d 2e61 b0bd
00000190: 5ffd 9abd 7e3d 073d 3474 bc3b 3c04 68bd
000001a0: 9c2f 023e b8ae 10bd 1a56 ab3d 4127 24bd
000001b0: 6002 45bd 76e0 a8bc 7c52 9f3c 4fa5 043b
000001c0: f428 26be 44cf 76be cf6a 693c ffa5 e83d
000001d0: 894a ef3b c683 ee3d cece 4dbd 235c f1bd
000001e0: 5dab 1fbd 23d1 213d 9d4d 153d 5732 1abc
000001f0: 020e 31bd 402a 463e 60ea e13c d26e 873d
00000200: b6e5 edbd 71c7 22be 7b52 373e ae60 783d
00000210: 1e83 81bd 1eb3 ac3c f8f6 97bd 96dc 223d
00000220: a742 68bc 4ce5 16be 75be debd 9365 ed3d
00000230: 7e53 e53d 40e4 3d3d 9bb3 a33d 5445 3fbe
00000240: 7490 87bb 689d 5cbd f2ba 7e3d f7de a8bc
00000250: 8575 f4bc d2ef ffbc 0900 9a3c 738d fabd
00000260: 0576 16bd 44dd eebc a359 bebd 5bd1 b83d
00000270: 983e dfbd 77ac b0bd 60cb 953c e30f 84ba
00000280: 43ee c6bd 090e 2bbd fb43 e7bb 822f e6bd
00000290: eb00 b53c f710 c33a 344e dbbb fee3 853d
000002a0: f185 a83b dc3a cb3b 2278 053d 368c 08bd
000002b0: dc6c 56bd c75e 4f3d 74e0 953c 7539 513d
000002c0: c0e6 b0bb 8069 79bd be80 413e 19d6 263c
000002d0: b3c3 7abc eb48 b8bb ce3a 9bbd b11f 203b
000002e0: a006 833d bf3d 41bd 06a2 1d3e e375 9e3d
000002f0: f08a debc 8cdf 93bd eb50 013d 839e bebd
00000300: 1f47 35bd b086 c33d 1650 8cbd 0ca7 263c
00000310: 5fa4 59bd bf7c 5e3d 41fb e73c 9fa1 953b
00000320: 2dfa 7cbd 01d1 e43b 76c4 213a f22b ea3c
00000330: b31d e13d 9ee5 aabc d334 8bbd 1c02 143c
00000340: bd40 7c3d 4565 dc3c 3788 763a 4ada 6d3c
00000350: 66ac c23a 196a 75bd bd12 c03d 5d6c 44bd
00000360: fcbd 3a3d 8e80 783d cada 7dbb b1ce 833d
00000370: 46e4 eebd c5d2 3d3d 6e48 f8bd 2401 46bb
00000380: ff11 2e3c 6c1b 623c ff46 d5bd d165 963b
00000390: f6a2 63bd a340 2abe c634 9fbb 22dc 85bd
000003a0: 3e47 9f3d 547f 3ebd bba7 713c ee71 863d
000003b0: 8c37 c63c 09bd 0bbb 1ec2 90bc 7e5b 74bd
000003c0: e881 833d 29d2 583d f30f 983c 8d85 b4bd
000003d0: 8cf9 ae3c ba11 873d 2fcd 58bd 6dc9 e5bc
000003e0: dd3b 5e3d e5cc 34bd 5218 df3c 998a 3c3c
000003f0: e597 57bd 4a71 2ebd 155c d9bc d2ac c1bb
-0.012418419 0.04935931 0.004754748 -0.063414946 0.06462464 0.07151087 0.036745224 0.17791982
-0.022815498 -0.05720117 -0.09324665 -0.07385126 0.11951182 0.0588023 -0.18277405 -0.039882433
-0.0063033276 0.017874438 -0.04616326 -0.061260235 -0.06038922 0.040119406 0.02105618 -0.020444678
0.08654936 -0.050875194 -0.012270637 -0.07235572 -0.025044773 0.05602312 0.03600717 0.03591587
-0.048526827 -0.025778526 -0.12935677 -0.10925484 -0.0026441934 0.043889333 -0.034662813 -0.09962397
0.037020806 0.105989136 -0.018413872 -0.042607505 0.07381242 -0.11643053 0.0921858 0.0059389938
-0.08591412 -0.0777065 0.13075756 0.033909366 -0.025897823 -0.022809997 -0.019436546 0.016542401
0.19673754 0.068796515 0.12713994 -0.0819323 0.0007432833 -0.033203386 0.17859352 0.15764901
-0.048344176 -0.13540646 0.21452698 0.036557376 0.18400605 0.0005371952 0.16320795 -0.04993085
-0.033619802 -0.054898754 -0.044019688 -0.13549781 -0.11149221 -0.1446423 -0.059436895 -0.11830909
-0.08023631 -0.037017394 0.0806257 -0.036098763 0.055372365 0.060113236 -0.05191939 0.016841646
0.1303014 -0.11360695 0.037976347 0.021183817 -0.039543454 -0.01785254 0.083322175 -0.13351017
-0.07630971 -0.026446754 0.042074196 -0.086122856 -0.07567858 0.033017628 0.005751157 -0.056644663
0.12713474 -0.035322875 0.08366032 -0.040076498 -0.048097968 -0.020614844 0.019448511 0.0020240133
-0.1622656 -0.24102503 0.014246657 0.11359786 0.0073025865 0.116462275 -0.050246052 -0.11785152
-0.038981784 0.03950609 0.03645097 -0.009411416 -0.04322625 0.19352055 0.027577579 0.06612934
-0.116160795 -0.15896393 0.17902558 0.060639076 -0.06323837 0.021081503 -0.074201524 0.03976115
-0.014176047 -0.14735907 -0.108761705 0.11591639 0.111975655 0.046360254 0.079932414 -0.1867879
-0.004137093 -0.05386105 0.062190004 -0.02061413 -0.029841194 -0.031242285 0.018798845 -0.122340105
-0.036733646 -0.029158242 -0.092944406 0.090243064 -0.10900611 -0.08626645 0.018285453 -0.0010075535
-0.097134136 -0.04176143 -0.0070576645 -0.1123953 0.022095164 0.0014882375 -0.006692672 0.06537627
0.00514292 0.006202085 0.03258527 -0.03333684 -0.05234991 0.050627496 0.018295504 0.051080186
-0.0053986013 -0.06089163 0.18896767 0.010182881 -0.015305447 -0.005623927 -0.075795755 0.0024432952
0.06397748 -0.047178026 0.15393838 0.07737329 -0.02716586 -0.072203726 0.03157131 -0.093075775
-0.04425728 0.09547174 -0.06851213 0.010171663 -0.053135272 0.054318186 0.02831805 0.004566386
-0.061762024 0.006982923 0.00061709376 0.028585408 0.10991993 -0.020861443 -0.06797185 0.009033706
0.061585177 0.026903758 0.0009404453 0.014517376 0.0014852404 -0.059915636 0.09378574 -0.047954906
0.04559134 0.060669474 -0.0038735145 0.06435908 -0.116646335 0.046343584 -0.1212319 -0.0030213082
0.010624408 0.013800483 -0.10413932 0.004589774 -0.055575334 -0.1662622 -0.004858586 -0.065361276
0.0777726 -0.04650815 0.014749463 0.06564699 0.024196409 -0.002132239 -0.017670687 -0.059657566
0.06421262 0.0529348 0.018562293 -0.08814535 0.021359228 0.06595178 -0.052930053 -0.028050149
0.05425631 -0.044140715 0.027233277 0.011507654 -0.052635092 -0.04258851 -0.026533166 -0.0059104944

cnn_branch.4.bias f4 [32]
00000000: 1005 c13d 2d57 523d 15b7 213d d27a 593d
00000010: 1da7 0dbb 001e c3bb 29e8 58bd f724 72bd
00000020: 4d54 0d3e bdb7 fbbd 51c1 aa3d 64b1 6e3d
00000030: ec86 7c3c 4851 4b3e 530d a9bd b184 c3b8
00000040: aa06 79ba 1a08 24bd cb4c 13be 2266 e1bc
00000050: 11f6 a53b ff54 f73d 07a5 54bd c683 09bc
00000060: ce35 fa3d 3520 9a3b ee1f 5a3d 1cbd e6bc
00000070: 4b3e 12bd 3c66 aabd 3021 0cbd 2b08 33bd
0.09424794 0.05135267 0.03948124 0.053095646 -0.00216145 -0.005954504 -0.05295578 -0.059117284
0.1380169 -0.12290905 0.083376534 0.05827464 0.015413027 0.19855225 -0.082544945 -9.32304e-05
-0.0009499589 -0.04004679 -0.14384763 -0.027514521 0.005064734 0.120767586 -0.051915195 -0.008393234
0.12217294 0.0047035464 0.053253107 -0.028166346 -0.03570394 -0.08320281 -0.034211338 -0.04370896

cnn_branch.5.weight f4 [32, 5, 5]
00000000: d643 803f 119d 7e3f f278 7d3f 2a75 823f
00000010: 951c 7f3f 696c 7f3f 0531 803f f8f8 833f
00000020: 6e7a 7e3f 4e2d 803f 5abe 7f3f 63b2 903f
00000030: 80cb 833f ad84 803f 4fc6 7d3f 96ef 7f3f
00000040: 1fdf 7d3f bdfe 873f 6bcf 7d3f 77f4 843f
00000050: 4772 7f3f 3989 7c3f 3220 803f 1867 7f3f
00000060: 3944 7f3f 040e 803f 2ef0 7f3f a511 7f3f
00000070: bcfb 7f3f c8ab 7f3f 8dfb 7f3f 183b 7a3f
00000080: aca4 7e3f 1b89 8a3f 5d43 7e3f c4f6 7d3f
00000090: 8a2b 803f 5313 863f 5410 813f 0cd6 7f3f
000000a0: c659 803f 301e 813f 167f 7d3f c072 7f3f
000000b0: d59f 7f3f 2bd3 7f3f 6d6c 803f 1c4d 7d3f
000000c0: 1f42 7f3f cb61 7f3f 855d 7f3f 9718 7f3f
000000d0: 435e 823f 056e 7e3f 16e2 7f3f 3cfa 7f3f
000000e0: 7e88 783f 0f95 803f 1b59 823f bba9 7f3f
000000f0: 89ab 803f a682 803f d0c3 ad3f 48fa 893f
00000100: ef5d 833f 11cc 7e3f 05c0 7c3f 9bef 7e3f
00000110: 47c2 9d3f 6d48 803f 7638 803f 5b92 7f3f
00000120: f56e 7f3f 1961 7e3f 990c 7f3f ef83 7f3f
00000130: ef1f 803f 2a12 7f3f faff 7f3f 7983 7b3f
00000140: 1020 803f a56c 813f 3674 7e3f c687 813f
00000150: 0433 7d3f 3142 7f3f ec94 7c3f a695 923f
00000160: cffd 963f 9a48 8a3f fb01 813f 1df1 973f
00000170: 7b24 8d3f 3cc0 8b3f 2745 813f 6e9c 803f
00000180: 5b1d 753f 5091 833f dcd7 7d3f 17aa 7f3f
00000190: a609 803f 5fa9 7f3f 56d5 7f3f 4af1 7f3f
000001a0: 4429 7e3f 018c 7f3f 21b9 7d3f 1151 7f3f
000001b0: 57b3 823f 6abf 813f f386 813f 0eca 823f
000001c0: 0868 b23f 629a 913f e531 7c3f a737 7f3f
000001d0: 59d0 7e3f 44da 813f 1aae 7d3f bc21 803f
000001e0: 09f1 7f3f 2540 803f 2f6c 7f3f dd63 7f3f
000001f0: 3d8d 7f3f bdf0 7f3f 3e7b 7f3f e6a9 7f3f
00000200: 9614 803f 3d80 803f 2672 803f 6653 7f3f
00000210: 2b3c 853f fd8f 7d3f eb7b 7f3f cad9 7e3f
00000220: 7806 823f 632d 7e3f 984d 823f d602 803f
00000230: 3b8e 7f3f ddee 7e3f e56c 7f3f d714 803f
00000240: 9f38 823f d9c9 7f3f 87c7 7f3f 566e 803f
00000250: 0535 803f 8cf8 7f3f 71d8 7f3f 295e 803f
00000260: e917 7f3f 7eef 7f3f e709 803f 1506 803f
00000270: cc09 813f 0940 7d3f f21a 803f 2b3c 803f
00000280: 13c6 7d3f 5e07 8c3f 994e a93f 9f38 883f
00000290: 7113 803f 2b98 7f3f 9c6a 7c3f 0704 923f
000002a0: 9d5e 7e3f 3cd0 7d3f 05ea 7f3f 2316 803f
000002b0: 7986 813f c8ed 803f 2e6b 7f3f 2a17 803f
000002c0: 46e1 7f3f d8a8 7d3f 945e 7d3f 514e 7f3f
000002d0: 6178 7f3f 41cb 803f 8ed7 7d3f 0869 7e3f
000002e0: 754f 803f a2f9 7f3f 96c4 803f a705 943f
000002f0: e59c a23f 48bb 823f 050e 803f db69 7e3f
00000300: 360b 803f d53a 833f 9a28 873f 2602 803f
00000310: 91eb 7f3f 8232 803f 6fdb 7d3f 5c61 803f
00000320: ed0c 803f b3bf 7f3f 37ee 7e3f ecf1 7f3f
00000330: 178d 803f 90a7 7f3f b1e3 7f3f 9036 7e3f
00000340: aa1e 7d3f 5335 7e3f d2c7 7f3f 3867 803f
00000350: e03d 983f fddb 9b3f 9242 823f d9b1 7f3f
00000360: 51a4 7f3f 5161 813f b4b6 8a3f 514e 803f
00000370: bb54 7f3f eb10 7f3f 7445 813f 72bf 803f
00000380: 0e18 803f 05e9 7f3f ed3e 803f 6338 803f
00000390: fd6a 813f 859e 7f3f 1447 7f3f 7a13 803f
000003a0: fce0 a53f 263a 7f3f e989 7e3f 0432 7f3f
000003b0: fcb4 7d3f 912b 8c3f a80e b53f 4931 803f
000003c0: 093d 833f c50d 8b3f b01a 843f b124 813f
000003d0: 6ab6 7e3f 6b9a 7f3f ce41 813f 1163 883f
000003e0: ffa5 7f3f 69f3 7e3f afe9 7e3f 4381 8b3f
000003f0: ba8d 8c3f aa28 7f3f a2c0 7e3f 900c 753f
1.0020702 0.99458414 0.9901267 1.0192006 0.9965299 0.99774796 1.001496 1.0310354
0.9940556 1.0013826 0.9989983 1.1304439 1.0296478 1.004049 0.9913072 0.99974954
0.9916858 1.0624615 0.9914462 1.0387105 0.9978375 0.98646885 1.0009825 0.99766684
0.99713475 1.0004277 0.9997586 0.996363 0.9999349 0.9987149 0.9999321 0.9774642
0.9947002 1.0823091 0.9932154 0.9920466 1.0013287 1.0474647 1.0083108 0.99935985
1.0027397 1.0087337 0.9902204 0.9978447 0.9985326 0.9993159 1.0033089 0.98945785
0.9971027 0.99758595 0.99752074 0.99646896 1.0185016 0.99386626 0.99954355 0.999912
0.9708327 1.0045489 1.0183443 0.99868363 1.0052348 1.0039871 1.3575382 1.0779505
1.0263041 0.9953013 0.987305 0.9958436 1.2324914 1.0022103 1.001723 0.99832696
0.9977868 0.9936691 0.996286 0.9981069 1.0009745 0.9963709 0.99999964 0.98247486
1.0009785 1.0111281 0.99396074 1.011956 0.9890597 0.99710375 0.98664737 1.1451919
1.1796206 1.0803406 1.0078729 1.1870457 1.1026758 1.091804 1.0099229 1.0047739
0.9574792 1.0278721 0.991575 0.9986891 1.0002944 0.99867815 0.999349 0.9997755
0.99281716 0.99823004 0.9911061 0.9973307 1.021098 1.013654 1.0119308 1.0217912
1.3937998 1.1375239 0.98513633 0.99694294 0.99536663 1.0144734 0.9909378 1.0010295
0.99977165 1.0019575 0.9977445 0.99761754 0.9982489 0.9997671 0.9979743 0.9986862
1.0006282 1.0039135 1.0034835 0.9973663 1.0408987 0.99047834 0.9979846 0.9955107
1.0158224 0.99288005 1.017993 1.0000865 0.998264 0.99583226 0.99775535 1.000636
1.0173529 0.9991737 0.9991383 1.0033672 1.001618 0.9998863 0.9993964 1.0028735
0.9964586 0.9997481 1.0003022 1.0001856 1.0081115 0.98925835 1.0008223 1.0018362
0.9913036 1.0939748 1.3227111 1.0642279 1.0005933 0.99841565 0.98600173 1.1407479
0.9936312 0.99145865 0.9996646 1.0006756 1.0119163 1.0072565 0.9977292 1.0007069
0.99953115 0.9908576 0.9897244 0.99728876 0.9979306 1.0062028 0.99157035 0.99379015
1.0024248 0.99990284 1.0059993 1.1564225 1.270413 1.0213404 1.0004278 0.9938027
1.0003421 1.0252329 1.0559266 1.0000656 0.9996882 1.0015414 0.99162954 1.0029712
1.0003945 0.99901885 0.99582237 0.9997852 1.0043057 0.99865055 0.99956805 0.99302006
0.98874915 0.99300116 0.99914277 1.00315 1.1893883 1.217651 1.0176566 0.9988075
0.998601 1.0107824 1.0837007 1.00239 0.99738663 0.9963519 1.009932 1.0058424
1.0007341 0.99964935 1.0019203 1.0017208 1.0110775 0.99851257 0.9971783 1.0005944
1.2959285 0.996981 0.99429184 0.9968569 0.99104285 1.0950795 1.4145098 1.0015041
1.0253001 1.0863577 1.0320644 1.0089322 0.9949709 0.99845 1.0098207 1.0655233
0.99862665 0.99590164 0.9957532 1.0898823 1.0980752 0.99671423 0.99512684 0.95722294

cnn_branch.5.bias f4 [32, 5, 5]
00000000: ea9f 593a 98ec 7e37 dc11 853a a78c cd3b
00000010: a2fd 68ba d81a 6dba 8804 f0ba e09c 19bc
00000020: c552 2ebc 2f5b abba aee4 883b ef31 443d
00000030: 1469 a0bb 51ae 303c 03cf 03bc 3dca 5eba
00000040: 6a2d 263b c1ea a73a 29e4 5e3b ce2d f1ba
00000050: 65d2 d7b9 1233 4fbb f61f 0fbb 4bb2 173a
00000060: 2890 9bba b653 bd39 00b0 df39 566c 49ba
00000070: 285d e73a 4e38 1a3a 3166 2eba 95ae 08bb
00000080: e2b4 393b a78f fb3c 8082 0eba 33d5 b839
00000090: 26f6 993a 1031 a1bb 6633 893a 4c16 3abb
000000a0: 5298 9dba df7c a439 a025 acbb 6747 58bc
000000b0: 1d2f 81b8 11c5 3c39 88b1 6e3b fae8 383c
000000c0: c48c 4e3b 3aa4 c439 19fa f6b9 c0b8 883a
000000d0: a014 83bc 1784 fcbb 79e7 2b3b b5b8 783a
000000e0: 5111 343b eafc c8bb 126a 313c b809 c7ba
000000f0: 32ca 5e3c 18f5 79bb c4f0 d2bd 7603 8b3b
00000100: b938 ac3c 3835 2d3c 846e a1ba 7562 e6ba
00000110: ddfd 95bd 8522 3f3b c52d 443b 68b7 1b39
00000120: 7707 d43b 706d ef39 c0cf e6b9 53d7 7139
00000130: c1e9 4cba cd37 943b 9df8 0ebb edbf 59bb
00000140: 6a5f 433b 29c1 31bc 2999 a1bc e352 3eba
00000150: bfc2 563b bd1e 113b ad3b 85bb 7aa8 e43c
00000160: 5433 86bc c071 05bd 16c9 873b be70 96bd
00000170: a1d0 eb3b 8637 3ebb a33c 923c 0e42 653b
00000180: 5b77 b1bb 947b 5fbd f369 b13a 37fb b0ba
00000190: 2fbe 8e3a 979f bcba 8ff4 993b 8b1b 343b
000001a0: 4511 3b3b 2fd4 133b 7492 9e3a f4fe 903b
000001b0: 5d0b 00bd c193 3bbc 0ff3 183c 65df 2a3c
000001c0: 843d 8f3d 05ff cbbc 51b2 dbbb e6bb caba
000001d0: 7e10 e73b 3fd4 da3b 3679 aebb 9321 79ba
000001e0: ad7b ba39 b28c 19b8 de7d 48bb 4d3c 4bb9
000001f0: 0678 0439 d37e f639 7835 18b8 16f9 8ebc
00000200: 5bde 6c3a 3836 90ba 0b32 2c3b d81f fc37
00000210: efe6 0d3c b019 6abb db55 193b 6b2e cf3a
00000220: 29ee 32bd 17b1 3fbc e77c dbba 8bca 34bb
00000230: 71e5 fdba 2815 713b 6e6a 91bc d34c 24bb
00000240: 5ce5 443c 7071 0e3a 06ee f1ba d784 72bc
00000250: 7893 5dbb 9dfe bb3a 1a3c 1a39 b6b9 c23b
00000260: 8d5e ae3c d0c0 aab7 2fa3 a0b8 ea06 7cb9
00000270: 8105 4d3c df4c 75bc da2a 173b 1a0d 4bbb
00000280: e4cc 97ba 6bb2 a63b af39 36bd ff0b 473c
00000290: 0e25 eb3b 9019 673a 61fe 133c 882d a83c
000002a0: a0e0 88ba f3d4 26bb a797 9eb9 9d76 1ebb
000002b0: 5400 9bbc 39d3 0fbb 1dbf 133a d637 8cb8
000002c0: 05cf 05bb 781e 1dba 8468 d3b9 1469 f3ba
000002d0: cfc2 cfb7 b363 9f3b b363 cfba 97d6 1dbc
000002e0: d222 37ba c4c8 3339 7483 a5bc 110c 9a3d
000002f0: fb1d e5bc ea6d ad3b 9ede 32b8 f2ed 52bb
00000300: 3330 7d3b c99b 5d3a 3fbf 803c fbbf 7b39
00000310: 6560 ddba 3535 2d3b d69a 87bb a4a7 373b
00000320: d7ed 123a 4e3b 0a39 6eb4 f13b 7a2b 90bb
00000330: e0bc 53ba 3bc5 8439 d25f dcba dce7 89bb
00000340: 8fee dabb 48e1 58bb 833c 96b7 31b2 373c
00000350: 5403 a5bc fe8d 2abd 5a9c 92bc 4601 d5b9
00000360: 4baa c5ba 928a 6c3b 28b0 1abd e0c0 aabb
00000370: c8e8 47ba efab 6639 f913 b7bb 9b47 54bb
00000380: e152 a2ba 4302 4b39 eade f33a 24cf b1bb
00000390: 7fb1 723b b257 c8b9 47e8 47bb d431 04bb
000003a0: b725 c13d 1b1a 04bb de59 983b b1ae 123b
000003b0: 82f2 bf3b 2443 10bb f6c7 6a3c d5f2 033b
000003c0: f2f7 4f3b 494a dfbc 351e d23c 3f00 1c3c
000003d0: 74ac a13b 11be 72b9 e7cb e73b e2a6 333d
000003e0: 6e15 b53b 8b11 00bb 5d9c b4ba 8e8b 2d3c
000003f0: 697e 753d 90f0 b239 9a7e 6d39 f3b9 823d
0.0008301722 1.5194666e-05 0.0010152417 0.0062728706 -0.0008887892 -0.00090448325 -0.0018311897 -0.009375781
-0.010639851 -0.001307344 0.0041776514 0.047899183 -0.004895339 0.010783748 -0.008044961 -0.0008498764
0.0025356659 0.0012811051 0.0034010506 -0.0018400492 -0.00041164752 -0.0031616134 -0.0021839119 0.00057867606
-0.0011868523 0.0003611126 0.00042665005 -0.0007683685 0.0017651664 0.0005883024 -0.0006652801 -0.0020856012
0.0028336574 0.030708147 -0.0005436316 0.0003525406 0.0011746332 -0.004919179 0.0010467588 -0.0028394638
-0.0012023544 0.00031373554 -0.0052535087 -0.013200617 -6.159975e-05 0.0001800249 0.0036421735 0.011286015
0.0031517008 0.00037506392 -0.00047107114 0.0010431036 -0.016001046 -0.007706176 0.0026230498 0.0009487973
0.0027476142 -0.0061336653 0.010828512 -0.0015185392 0.013598012 -0.0038140472 -0.10299829 0.004242356
0.021023141 0.01057177 -0.0012316261 -0.001757695 -0.07323811 0.0029164862 0.0029934507 0.00014850276
0.0064706164 0.0004566717 -0.00044023804 0.00023063766 -0.00078168145 0.0045232535 -0.0021815666 -0.003322597
0.002981151 -0.010849276 -0.019726353 -0.0007260276 0.0032769886 0.0022143566 -0.004065952 0.027912367
-0.016381897 -0.032579184 0.0041438444 -0.073457226 0.0071965014 -0.0029024794 0.01785118 0.0034981999
-0.0054158396 -0.054561213 0.0013535604 -0.0013502602 0.0010890419 -0.0014390823 0.004698343 0.0027482237
0.002854423 0.0022556891 0.001209809 0.004424924 -0.031260837 -0.0114488015 0.009335293 0.010429238
0.06994155 -0.024901876 -0.0067046066 -0.0015467375 0.0070515266 0.0066781337 -0.005324508 -0.0009503599
0.0003556883 -3.6609075e-05 -0.00305926 -0.00019382052 0.00012633213 0.00047015268 -3.628942e-05 -0.017452758
0.0009035819 -0.0011002487 0.0026274945 3.005557e-05 0.008661016 -0.0035720877 0.002339712 0.001580668
-0.04368416 -0.011699936 -0.0016745598 -0.0027586545 -0.0019370747 0.0036786292 -0.017750945 -0.0025070205
0.012017574 0.00054337736 -0.0018457777 -0.014802179 -0.0033809822 0.0014342848 0.00014708974 0.0059425486
0.02128532 -2.0355365e-05 -7.65979e-05 -0.00024035168 0.012513519 -0.014971941 0.0023066313 -0.003098315
-0.0011581448 0.005087187 -0.044488605 0.012148856 0.007176048 0.000881576 0.009032817 0.020529523
-0.001044292 -0.0025456517 -0.00030249098 -0.0024179586 -0.018921055 -0.0021945967 0.0005636083 -6.6861205e-05
-0.0020417583 -0.0005993615 -0.00040322926 -0.0018570744 -2.4767038e-05 0.00486418 -0.0015822559 -0.009633682
-0.00069860846 0.00017145561 -0.020204283 0.07521833 -0.027968397 0.005292644 -4.2645835e-05 -0.0032185283
0.0038633465 0.0008453695 0.015716193 0.00024008744 -0.001688969 0.002642942 -0.004138331 0.0028023506
0.0005604899 0.00013182798 0.007376245 -0.004399714 -0.0008077156 0.0002532395 -0.0016813225 -0.004208548
-0.0066812704 -0.0033093262 -1.7909571e-05 0.011211918 -0.020143189 -0.04163932 -0.01789682 -0.00040627475
-0.0015080658 0.0036093337 -0.037765652 -0.005210981 -0.00076259347 0.0002199856 -0.0055870977 -0.0032391313
-0.0012384319 0.00019360431 0.0018605862 -0.0054263044 0.0037032065 -0.0003821231 -0.0030503438 -0.0020171301
0.09431022 -0.0020157162 0.004649385 0.0022381956 0.0058577666 -0.0022012675 0.014329901 0.0020133753
0.003173348 -0.027257102 0.02564917 0.009521543 0.004933888 -0.00023149724 0.0070738676 0.043860324
0.0055262363 -0.0019541706 -0.001377951 0.010592354 0.059935007 0.0003413004 0.00022649244 0.06383123

fc.0.weight f4 [1, 800]
00000000: f56a af3d efe7 f7bc 881f 99bc bba6 6abe
00000010: 467a 79b9 7389 c1bc 7bda b1bd f3bc e63d
00000020: 8f2f 063d 4ac7 9c3d 9a30 493d 8c3f 9c3e
00000030: 6ff9 833e 32ec 7e3d e5e4 0a3c 4ca6 823c
00000040: 01a7 703d a0f9 90be 10f3 793c e19c 583e
00000050: 2e71 2e3d 4e86 ec3c df87 8fbd 9ad7 20bd
00000060: 50d4 38bd d845 213d 68f3 acbd c6ce 413d
00000070: 532a a33d eb52 2abd 8144 003d e325 a23c
00000080: cd8e 253d b46f 8bbe 46ee 6d3b 2bc7 b5bc
00000090: ed0f 1ebd 1163 843e 0e34 f53d 49d7 4a3d
000000a0: 0cc6 aabd b8c0 053e 46f8 ff3b b512 22be
000000b0: 9027 0cbd 8cd5 b9bc 05ec 163d c009 423d
000000c0: c858 8fbd fb07 b3bc 24f3 b73c 0e04 82bd
000000d0: 3de4 773e abee ac3d 4907 b4bd e7ca 663d
000000e0: 623e 23bd 7640 643e c6b5 0abe 7fbf ffbc
000000f0: deed 213d 3072 663d 1d57 2ebf 8598 ac3e
00000100: 531e f73d 275e 95bd 69fa 21bd db2c 583b
00000110: 05f2 f43e 54a7 c23d 95a8 f2bc 6376 553d
00000120: 98e6 bb3c 2b06 233d 4b36 06bc 182a a03b
00000130: bd44 983d 7fa3 273e c6ae d73d 5581 a43c
00000140: e4da cbbd 83a7 ee3d 86dc e4bc 1a78 2d3e
00000150: 762e 6ebc cbc4 77bd 9177 2fbd 98cf 32bf
00000160: 00da a33e b896 b4be 16ff 013e 6ece fe3e
00000170: 2a6e ab3e 8f27 d33e 1e38 163e a6ff debd
00000180: e185 f0bd c3e4 283e 1cd9 a6bd a534 9dbd
00000190: c97e 7fbd 9cd8 89bd 2073 0bbe 511d bc3d
000001a0: 5a6e 97bd f6ef a9bd e338 51bd ec9f 0dbb
000001b0: 5b5f 32be de77 263e 7b40 29be 0052 26be
000001c0: 9947 25bf b408 eb3e 0e39 02bd 4782 623d
000001d0: c700 9f3d 24d4 2c3e 901c 0d3e 2fb5 433d
000001e0: 5906 4b3d 71fc 863d 51d2 b73c 1f34 243d
000001f0: 35bc 05bc bafd 2c3d 5c2b 0cbd 0715 61be
00000200: 3d0f d2bd 334b c93d cff9 f23d 088c edbd
00000210: 00ba 713e e5f8 1dbd 6088 2dbd 4aa4 23bd
00000220: 001e 363e 21d3 a2bd e34a aa3d 4089 d9bd
00000230: df78 1f3c 4690 813c d6fa 943d 3493 8abd
00000240: 1bad 1d3e 74af 2e3c 1b73 a53c 2bb5 a83d
00000250: 513c 96bd 173f 333d 9815 9a3b 78c3 30bd
00000260: e2cc a93b 8888 94bd 50ba 53bd a7d9 53bd
00000270: 963e f93d ca50 b33c f478 a8bd 8267 9bbd
00000280: 4661 5d3d 4f24 9bbe f11e 18bf 42b2 893e
00000290: a99a 92bd cc2c 9cbd 7c18 86bd d42e e5be
000002a0: 1687 4abc 3ebd ba3d 761f 713d c26a 833d
000002b0: e1b6 a6be 24e3 7b3d c89b a1bb a25a 7c3d
000002c0: 755f a83d c5a8 f5bc b686 2e3e c5f8 483d
000002d0: a602 a0bd f9d4 4a3e 49a2 843c 0e29 583d
000002e0: 0779 b3bd d950 693c 9760 193e e302 febe
000002f0: 5d0f 0b3f fe73 35be c180 94bd 3a04 afbd
00000300: f92a c83d 53c5 26be 85b2 9a3e 4977 63bd
00000310: 4824 52bd 3312 86bd d246 323d 881a c23d
00000320: 606f 7c3d dd9f e5bc 526a 153e 7f51 b0bd
00000330: 790b f63d 1ec2 4e3c 9ab3 29bd 8d77 12bb
00000340: 16e8 893c 8cc3 b1bb 391d 1c3d 6825 b63d
00000350: c6e2 eabe 8fb5 f43e 6f68 0d3e 2fd3 143d
00000360: 7afa 8f3d 3e57 09be 9b0f aebe 6e3e a43d
00000370: 8073 f1bc a605 c93a 1016 14be 770f dabd
00000380: ce6b cf3d 9f9f bc3c ea62 c7bc cc79 013e
00000390: fe5d 2cbe 315b 663d 4565 ebbd 9909 2e3e
000003a0: f0a0 ffbe 3a99 53bd 4008 01bd 1871 83bd
000003b0: d090 cf3d 0357 833e 105b 2c3f 369d ec3d
000003c0: 3a1d f43d 62b7 b23e 5fbd 1d3e eda6 803d
000003d0: 1ac7 82bd ec48 a6bd cfd5 c93d 7326 61be
000003e0: 299a 5d3d 93a6 86bd 771a b03d dc93 b43e
000003f0: 7d9b c33e 7a7a 97bd cd14 103d b9ba b2bd
0.08565322 -0.030261962 -0.018691793 -0.22915165 -0.00023792041 -0.023625111 -0.0868425 0.11266508
0.0327602 0.07655199 0.049118616 0.30517232 0.2577624 0.062236972 0.008477424 0.015948437
0.058753017 -0.2831545 0.0152557045 0.21153595 0.042588405 0.028872635 -0.07008337 -0.039268114
-0.045124352 0.03937325 -0.084448636 0.047316335 0.07967057 -0.041582983 0.03131533 0.019793456
0.04041939 -0.2723366 0.0036305352 -0.022189697 -0.038589407 0.25856832 0.11972819 0.04952172
-0.08338556 0.13061798 0.007811579 -0.15827449 -0.034217417 -0.022684835 0.03684618 0.04737258
-0.069993556 -0.021854391 0.022454806 -0.063484296 0.2420816 0.0844396 -0.08790452 0.056345847
-0.039854415 0.22290215 -0.13545904 -0.031219242 0.03953349 0.05626124 -0.68101674 0.33710113
0.12066331 -0.07293349 -0.03954545 0.003298572 0.47840896 0.095045716 -0.029621402 0.052114855
0.022937104 0.039800804 -0.008191655 0.0048878305 0.07434986 0.16370963 0.10531382 0.020081202
-0.099538594 0.11653044 -0.027937185 0.16940346 -0.014537444 -0.06049041 -0.042838637 -0.6984801
0.32002258 -0.3527124 0.12694964 0.49766868 0.33482486 0.41241118 0.14669845 -0.10888605
-0.117442854 0.16493516 -0.08146879 -0.07676057 -0.06237677 -0.06730768 -0.13618135 0.09185279
-0.07394095 -0.08297722 -0.051079642 -0.0021610213 -0.17419188 0.16256663 -0.16528504 -0.16242218
-0.64562374 0.45905077 -0.031792693 0.055300023 0.0776382 0.168778 0.13780427 0.047780212
0.0495666 0.06591118 0.022439154 0.04008877 -0.008162548 0.04223416 -0.03422104 -0.21980678
-0.10256813 0.09828796 0.118640535 -0.115989745 0.2360611 -0.038567442 -0.042366385 -0.0399516
0.17784882 -0.07950426 0.08315065 -0.106218815 0.009733408 0.015815865 0.07274406 -0.06766358
0.15398066 0.0106619485 0.020196488 0.0823768 -0.07335723 0.04376134 0.004702281 -0.043155164
0.0051818946 -0.07252604 -0.051691353 -0.05172124 0.121701404 0.02188911 -0.08226195 -0.07588102
0.054047845 -0.3030114 -0.5942221 0.26893812 -0.07158405 -0.07625732 -0.06547639 -0.4476229
-0.012361309 0.09118126 0.058867894 0.06416847 -0.325614 0.061495915 -0.0049319007 0.06160987
0.08221332 -0.029987702 0.17043576 0.04906537 -0.07813005 0.19807805 0.016190665 0.052773528
-0.087633185 0.014240467 0.14978252 -0.49611577 0.5432032 -0.17720029 -0.0725112 -0.08545728
0.097738214 -0.1628621 0.30214325 -0.05553368 -0.05130413 -0.0654644 0.04352457 0.09477717
0.061629653 -0.02803033 0.14591339 -0.08609294 0.12013907 0.012619523 -0.041431047 -0.002234909
0.0168343 -0.0054249223 0.038113806 0.088938534 -0.4587614 0.47794768 0.1380937 0.036334213
0.070301965 -0.13412187 -0.3399628 0.0801972 -0.02947402 0.0015336766 -0.14461541 -0.10647481
0.10127984 0.023025332 -0.024339158 0.12644118 -0.1683273 0.05623931 -0.11493925 0.16995849
-0.49927473 -0.0516598 -0.03150201 -0.06418055 0.10135043 0.25652322 0.6732645 0.11553423
0.11919637 0.34905535 0.1540427 0.062818386 -0.06385632 -0.081193775 0.09855234 -0.21987323
0.054102097 -0.0657474 0.08598798 0.35269058 0.38204566 -0.073964074 0.035176087 -0.08727021
