gio_notebooks/FOREX_cadjpy-day-High_Refined_info/avg_acc0.73569_cnn3_d1_e8/model.pt (torch, 120106 bytes, 17 tensors)

cnn_branch.0.weight f4 [16, 3, 3, 3]
0.042379647 0.15787195 -0.10143942 -0.15553056 -0.07331257 0.10224398 -0.014689558 0.17017967
0.056802 0.080738686 -0.008594296 0.0376112 -0.1868144 -0.09660807 -0.043218702 0.0472476
0.17280222 0.14625096 -0.080932245 -0.037138917 0.09785815 0.18508074 -0.022198163 0.116855614
-0.07004037 -0.0058733784 0.2114879 -0.22029936 -0.09263926 -0.0092218565 -0.07475973 0.14910787
-0.14107974 -0.061499506 -0.13026392 -0.1787546 -0.03992956 0.17037502 0.06488803 0.08876641
-0.0139037585 -0.17901051 0.021462955 -0.1970587 -0.18870766 -0.046443745 0.12698348 0.1354277
-0.09102392 -0.07761851 0.029756559 0.23940843 0.090041265 0.009851604 0.15605974 -0.08438132
0.048612263 -0.14000462 -0.1235529 -0.09723365 0.116867356 0.10660517 -0.10103727 0.13165756
0.107762076 -0.06690977 0.016376508 0.008208661 0.05989943 0.19213271 -0.11607401 -0.07521042
0.105673835 0.18360941 0.16778967 0.14608584 -0.023135955 -0.23417675 0.029585961 -0.08914833
-0.1712423 0.16413271 0.16431841 -0.19766614 0.036877993 -0.019947598 -0.040084034 -0.100975215
0.06720467 -0.13818781 0.024457414 0.07291902 0.11467938 0.091509335 -0.1870972 -0.14482507
0.09332799 0.057928238 -0.17328392 -0.12622708 0.19495104 0.14880425 -0.062233087 -0.030059168
-0.16381495 -0.03350084 -0.13341886 -0.1349716 -0.08267791 0.00969641 -0.12655237 0.10464625
-0.1229287 0.14828256 0.11471716 -0.15933533 -0.022244683 -0.018772963 0.057684317 0.07952794
0.096623905 -0.0035726975 -0.11764372 0.13010326 -0.20212962 -0.08834613 -0.0920228 -0.10598742
-0.0019020515 -0.19090784 -0.05450288 0.07939947 -0.13911937 -0.013544784 0.16643427 -0.034058616
-0.010680047 -0.043561574 0.050454725 0.1177459 0.17070909 0.13018438 0.18229827 0.005134862
-0.16078942 -0.09495621 0.112078086 0.027442317 -0.114198856 -0.16874588 -0.16023614 -0.17376517
-0.08323007 0.038116213 0.09549018 -0.21929497 0.070631176 -0.17007485 -0.06385877 -0.108692534
-0.05471828 -0.068650104 -0.21573038 -0.16675358 -0.02225363 0.0066403756 -0.06712897 0.10867169
-0.14049102 -0.03427648 0.14087656 -0.054664582 0.23679413 0.034281097 -0.14327379 0.2398383
0.017106682 -0.014242424 0.2571079 -0.13105933 0.020283122 -0.03855453 0.079394735 0.06260154
0.1167226 0.054188006 -0.012183043 -0.03859292 -0.17561533 0.117348716 0.13169992 0.13563552
-0.13904701 -0.007886514 -0.12342813 -0.11196236 -0.113972485 0.07233391 -0.076601386 0.03829038
0.047422852 0.1663041 -0.1399785 -0.15156434 -0.16343233 0.1453301 -0.09130771 0.20548508
0.055754688 -0.020961136 0.041752886 0.00941762 0.017368753 -0.050520815 -0.031254016 -0.07467574
-0.15037733 -0.1080402 0.19800462 -0.17835054 -0.036825266 0.20495631 0.104782134 0.061086394
-0.15772274 0.05759737 -0.097316794 0.08598817 -0.1211118 -0.06034692 0.07983118 0.15287918
0.02104135 0.1247485 0.03900163 -0.10785105 0.19051996 -0.25873426 -0.090978146 0.11595361
-0.04426985 0.14675845 -0.010728395 0.021210337 0.101891875 -0.15475269 0.11607424 -0.20109682
-0.017706595 -0.03448506 -0.098542504 -0.020746555 0.24428529 -0.021746708 -0.11558673 -0.002291858
00000000: 4896 2d3d 2fa9 213e 78bf cfbd 6743 1fbe
00000010: e724 96bd 4b65 d13d 79ac 70bc 9443 2e3e
00000020: 37a9 683d 535a a53d 17cf 0cbc 340e 1a3d
00000030: 464c 3fbe 74da c5bd 1806 31bd b386 413d
00000040: 11f3 303e d0c2 153e cebf a5bd fa1e 18bd
00000050: db69 c83d ce85 3d3e ecd8 b5bc ff51 ef3d
00000060: 5371 8fbd 7875 c0bb 4990 583e 2896 61be
00000070: a7b9 bdbd 4517 17bc a11b 99bd bcaf 183e
00000080: 3577 10be e8e6 7bbd e863 05be 720b 37be
00000090: 2e8d 23bd ca76 2e3e 04e4 843d 2acb b53d
000000a0: 97cc 63bc 884e 37be 14d3 af3c c1c9 49be
000000b0: 953c 41be cc3b 3ebd f507 023e 8fad 0a3e
000000c0: c06a babd 74f6 9ebd 07c4 f33c 7c27 753e
000000d0: 8e67 b83d 9f68 213c 20ce 1f3e 1dd0 acbd
000000e0: a71d 473d 5f5d 0fbe 4e09 fdbd 7022 c7bd
000000f0: 2758 ef3d d053 da3d a1ec cebd 3dd1 063e
00000100: 5db2 dc3d fd07 89bd 0728 863c 9f7d 063c
00000110: 1b59 753d 70be 443e 36b8 edbd ec07 9abd
00000120: 866b d83d 1b04 3c3e 0ed1 2b3e 8797 153e
00000130: 9d87 bdbc 08cc 6fbe 425e f23c 6693 b6bd
00000140: 245a 2fbe 6812 283e 1643 283e fe68 4abe
00000150: 610d 173d 2569 a3bc 282f 24bd 18cc cebd
00000160: 9aa2 893d 1b81 0dbe ea5a c83c 9156 953d
00000170: 06dd ea3d 3f69 bb3d 6996 3fbe 064d 14be
00000180: bf22 bf3d 2946 6d3d 5771 31be ac41 01be
00000190: 3fa1 473e 2460 183e 1fe8 7ebd a53e f6bc
000001a0: 1bbf 27be 2d38 09bd f49e 08be ff35 0abe
000001b0: 0953 a9bd b1dd 1e3c f296 01be c650 d63d
000001c0: 0bc2 fbbd 62d7 173e d5f0 ea3d cd28 23be
000001d0: 7b3a b6bc c2c9 99bc 6446 6c3d 8bdf a23d
000001e0: c1e2 c53d eb23 6abb 31ef f0bd ca39 053e
000001f0: 11fb 4ebe d1ee b4bd 7376 bcbd ef0f d9bd
00000200: 424e f9ba 587d 43be 693e 5fbd 309c a23d
00000210: 4f75 0ebe f1ea 5dbc bf6d 2a3e 0c81 0bbd
00000220: 5dfb 2ebc 9f6d 32bd 9da9 4e3d c324 f13d
00000230: 5dce 2e3e 0e4f 053e 66ac 3a3e 5842 a83b
00000240: fba5 24be 6778 c2bd 3289 e53d b6ce e03c
00000250: 17e1 e9bd b8cb 2cbe f114 24be 7fef 31be
00000260: 8774 aabd bf1f 1c3d 5b90 c33d dc8e 60be
00000270: 14a7 903d 1a28 2ebe 63c8 82bd 319a debd
00000280: 4620 60bd 6d98 8cbd 6de8 5cbe 73c1 2abe
00000290: 3f4d b6bc 8297 d93b ea7a 89bd 438f de3d
000002a0: e1dc 0fbe 7f65 0cbd f241 103e f8e7 5fbd
000002b0: 297a 723e 566a 0c3d 5db6 12be 2c98 753e
000002c0: 5023 8c3c 0e59 69bc a6a3 833e 6b34 06be
000002d0: ca28 a63c 5beb 1dbd b599 a23d 3c35 803d
000002e0: 420c ef3d 3ef4 5d3d 639b 47bc 9c13 1ebd
000002f0: 81d4 33be 8654 f03d 58dc 063e 0ae4 0a3e
00000300: 5762 0ebe 7036 01bc e3c7 fcbd 864c e5bd
00000310: 686a e9bd cd23 943d 30e1 9cbd 60d6 1c3d
00000320: 773e 423d 9f4b 2a3e 8656 0fbe af33 1bbe
00000330: ce5a 27be 6ad1 143e 89ff babd ae6a 523e
00000340: 075f 643d b0b6 abbc 1305 2b3d 5c4c 1a3c
00000350: ea48 8e3c eaee 4ebd 3604 00bd 98ef 98bd
00000360: 84fc 19be 2e44 ddbd b9c1 4a3e 86a1 36be
00000370: 17d6 16bd 11e0 513e 0498 d63d ba35 7a3d
00000380: 1282 21be 38eb 6b3d 074e c7bd 911a b03d
00000390: 7709 f8bd 552e 77bd 887e a33d 5c8c 1c3e
000003a0: e95e ac3c 247c ff3d 2cc0 1f3d 03e1 dcbd
000003b0: aa17 433e d178 84be c052 babd 1679 ed3d
000003c0: 4d54 35bd d947 163e 26c6 2fbc 4dc1 ad3c
000003d0: b0ac d03d 7d77 1ebe 55b8 ed3d 53ec 4dbe
000003e0: 6c0d 91bc 3540 0dbd a7d0 c9bd aef4 a9bc
000003f0: ec25 7a3e 2726 b2bc bcb8 ecbd ff32 16bb

cnn_branch.0.bias f4 [16]
0.16334775 0.012623469 -0.1282657 -0.068952724 0.042024385 -0.14670846 0.09561161 -0.1747195
-0.18500158 -0.18699656 -0.03904023 0.12940945 -0.18214972 0.15996258 -0.07698414 0.056364287
00000000: a244 273e abd2 4e3c 1558 03be 1637 8dbd
00000010: c321 2c3d be3a 16be 05d0 c33d abe9 32be
00000020: 0e71 3dbe 077c 3fbe a6e8 1fbd e983 043e
00000030: 7585 3abe 3bcd 233e dca9 9dbd 3dde 663d

cnn_branch.1.weight f4 [16]
0.99227595 0.98359185 1.0298216 1.0181521 0.989105 0.98397064 1.0005313 0.99450505
1.0184479 1.0037405 0.995826 1.0003316 1.0221685 0.9573788 1.0082203 1.0007986
00000000: cc05 7e3f adcc 7b3f 32d1 833f cf52 823f
00000010: fc35 7d3f 80e5 7b3f 6911 803f e297 7e3f
00000020: 805c 823f 927a 803f 74ee 7e3f de0a 803f
00000030: 6bd6 823f c716 753f 5d0d 813f 2b1a 803f

cnn_branch.1.bias f4 [16]
-0.012993624 -0.0095384875 0.018221535 0.004251801 -0.018464798 -0.004426943 0.07281965 -0.023809824
0.016892763 -0.046528757 0.00035319355 -0.011005477 0.038453907 -0.040292095 0.039944995 0.0023265253
00000000: 36e3 54bc 5147 1cbc 5445 953c b152 8b3b
00000010: 7d43 97bc e40f 91bb 7822 953d d20c c3bc
00000020: b162 8a3c f094 3ebd d62c b939 5150 34bc
00000030: d881 1d3d 5309 25bd 5d9d 233d 9e78 183b

cnn_branch.1.running_mean f4 [16]
0.3817956 -0.05412543 -0.024990216 -0.21785425 -0.12728778 -0.47440565 0.18944876 -0.19669364
-0.12722945 -0.23171401 -0.12103489 0.12027351 0.30058149 -0.20151651 0.5055847 -0.050667472
00000000: b67a c33e a0b2 5dbd 48b8 ccbc 2f15 5fbe
00000010: ba57 02be 4ce5 f2be dbfe 413e 0f6a 49be
00000020: 7048 02be 7046 6dbe 24e1 f7bd f551 f63d
00000030: d1e5 993e 585a 4ebe 006e 013f b288 4fbd

cnn_branch.1.running_var f4 [16]
0.04452867 0.04202763 0.09530641 0.059038807 0.024770562 0.13366807 0.06546214 0.024793226
0.04496957 0.06488579 0.08106067 0.024555817 0.14372323 0.17547746 0.11344372 0.022344582
00000000: b263 363d 2a25 2c3d 0230 c33d add2 713d
00000010: a2eb ca3c 48e0 083e 0411 863d 2a1b cb3c
00000020: 0332 383d d7e2 843d 2303 a63d 4829 c93c
00000030: 2f2c 133e 5db0 333e 2e55 e83d fc0b b73c

cnn_branch.4.weight f4 [32, 16, 3, 3]
0.0068593975 -0.09302747 0.060364157 0.043357708 0.044542328 0.057531215 -0.09099128 0.042157233
0.021796154 0.038577557 -0.07447193 -0.054974295 -0.08743934 -0.04398806 -0.0034068837 -0.060546927
-0.021017382 0.046980336 0.009402158 -0.054097716 -0.067731455 -0.034738466 0.030782718 0.057355326
0.052353833 -0.023884723 0.008864438 -0.088095844 -0.06614582 0.0500462 -0.05621061 0.048468966
-0.057051063 -0.02964708 -0.06945465 0.047498226 -0.028493086 0.071298555 0.058837593 0.052924618
0.013097053 -0.018818272 -0.013236813 0.015885586 0.06304846 -0.052978046 0.0764077 0.0073187365
-0.06954004 -0.03172126 0.08233538 0.07473428 -0.057704713 0.059488628 0.04788158 0.044671163
0.056942128 -0.042713787 0.0038363477 0.041176528 -0.013836638 0.0163289 -0.022819111 0.05951553
-0.033569925 -0.013338054 0.009374689 0.029876914 -0.043858435 -0.0048236097 0.06267142 -0.029907225
0.024197942 -0.030048562 0.0060086236 -0.059061397 -0.07092609 -0.082831554 0.06630933 -0.06726273
0.012443683 -0.045987774 0.08130968 0.07931814 -0.084375106 -0.07331112 -0.06300808 0.006030032
-0.0263355 -0.07865251 -0.024983078 0.004420022 -0.025005098 0.019872043 -0.030572234 -0.039020013
-0.013795233 0.07365999 -0.052291684 -0.0042708446 -0.03888338 0.092368424 -0.07780847 -0.10414355
0.075079136 -0.054982416 0.023787597 -0.03041023 -0.033689823 -0.025810665 0.038814094 -0.0012805178
-0.08942791 -0.07362178 -0.035831235 0.017344091 -0.07502626 0.066512056 -0.013443704 -0.016225522
0.07114599 0.040107485 0.09656378 0.047482647 -0.02293792 -0.025590222 -0.017336063 0.05361372
-0.018914029 -0.088767774 0.04352264 0.07623554 -0.037629172 -0.054968406 -0.07998828 0.02293847
-0.009246828 -0.01466754 0.034197833 0.031628076 0.062315114 0.044180565 0.021317836 -0.069542296
-0.13033171 0.051049665 0.04462937 0.002245465 -0.03889223 0.09690173 0.06320095 0.04510168
-0.10396167 -0.022223612 -0.06835044 0.06391912 -0.032784563 -0.0020227053 0.025640095 -0.0025124
-0.054000404 0.004957371 0.015000644 -0.09934607 0.085852824 -0.06843155 -0.04088976 0.04741826
0.073601834 0.005283613 0.106682636 0.020209739 -0.05168589 0.106188744 0.05165621 -0.08751616
-0.037265316 -0.07004534 0.093593486 0.012856596 -0.15112792 -0.049408667 0.090503916 0.019636849
0.040698044 0.034776114 -0.013095469 -0.056372825 -0.037128497 -0.03791289 -0.054675523 -0.0040271822
0.013228171 0.014506552 -0.0048202043 0.0077746217 -0.08208771 0.044168785 -0.09273963 0.052014556
-0.08193431 -0.049998738 -0.004649699 -0.07027469 0.06963258 -0.056497127 -0.046798054 -0.04951868
0.027388219 0.031985085 0.05426648 0.04736473 -0.037915945 -0.022030387 0.06426079 -0.07079904
-0.005573768 0.0555763 -0.03892859 -0.059640612 0.010642892 0.06614013 -0.053517036 -0.063045375
-0.008551705 0.028696157 0.0015354889 0.094767936 -0.05441039 -0.07346554 0.029606309 0.009474093
0.07727217 -0.04453917 -0.028882243 -0.053592406 0.03979225 0.13123925 0.0064929877 -0.06423233
0.050378796 0.008767999 0.019771826 -0.0151651 0.023102906 0.054977536 0.029121079 -0.10458483
0.045336604 -0.06265061 0.035848405 0.025411848 -0.06980801 0.05618297 -0.0681454 0.031731285
00000000: ccc4 e03b 3085 bebd 6840 773d da97 313d
00000010: 0472 363d daa5 6b3d a359 babd 10ad 2c3d
00000020: d98d b23c 8003 1e3d bd84 98bd ba2c 61bd
00000030: 6613 b3bd d32c 34bd 0646 5fbb 0e00 78bd
00000040: a52c acbc 746e 403d 820b 1a3c 9195 5dbd
00000050: cab6 8abd ec49 0ebd 0a2c fc3c 6bed 6a3d
00000060: f970 563d e5a9 c3bc 263c 113c 986b b4bd
00000070: 7677 87bd 3ffd 4c3d 193d 66bd 6587 463d
00000080: 60ae 69bd 6fde f2bc 3d3e 8ebd 808d 423d
00000090: 556a e9bc fa04 923d b0ff 703d 7cc7 583d
000000a0: 0695 563c c728 9abc 38df 58bc 7d22 823c
000000b0: 8d1f 813d 82ff 58bd a47b 9c3d 03d2 ef3b
000000c0: 026b 8ebd 27ee 01bd 749f a83d 490e 993d
000000d0: c75b 6cbd 59aa 733d 7a1f 443d 1cf9 363d
000000e0: 263c 693d a7f4 2ebd 3c6b 7b3b b8a8 283d
000000f0: 11b3 62bc 2fc4 853c 25ef babc 8ec6 733d
00000100: 9e80 09bd da87 5abc 4c98 193c 6ec0 f43c
00000110: e7a4 33bd 5f0f 9ebb e059 803d ffff f4bc
00000120: c33a c63c 6728 f6bc fde3 c43b 5dea 71bd
00000130: b341 91bd 97a3 a9bd 30cd 873d 0bc1 89bd
00000140: 97e0 4b3c ad5d 3cbd b185 a63d 8d71 a23d
00000150: dbcc acbd 2424 96bd 610a 81bd 9397 c53b
00000160: 8cbd d7bc 9114 a1bd 50a9 ccbc d5d5 903b
00000170: 7ed7 ccbc b2ca a23c 9f72 fabc 73d3 1fbd
00000180: 6705 62bc 0ddb 963d ce2f 56bd 71f2 8bbb
00000190: 2e44 1fbd a82b bd3d 0c5a 9fbd 3749 d5bd
000001a0: 17c3 993d 3e35 61bd 35de c23c e01e f9bc
000001b0: 57fe 09bd e370 d3bc 87fb 1e3d 0cd7 a7ba
000001c0: fb25 b7bd 04c7 96bd c6c3 12bd 3215 8e3c
000001d0: 5ea7 99bd 7937 883d fb42 5cbc 63eb 84bc
000001e0: fdb4 913d bf47 243d 3bc3 c53d 2a7d 423d
000001f0: 4ee8 bbbc 96a2 d1bc 5c04 8ebc 0f9a 5b3d
00000200: 98f1 9abc e1cb b5bd cc44 323d 6121 9c3d
00000210: 0c21 1abd 8d26 61bd e5d0 a3bd 75e9 bb3c
00000220: 0280 17bc 1f50 70bc 0713 0c3d 718c 013d
00000230: 223e 7f3d aef6 343d bea2 ae3c 316c 8ebd
00000240: ad75 05be 7419 513d 49cd 363d a728 133b
00000250: 754d 1fbd 6a74 c63d 806f 813d 8abc 383d
00000260: dbe9 d4bd 4b0e b6bc 51fb 8bbd 07e8 823d
00000270: 1b49 06bd 5d8f 04bb 2d0b d23c 14a7 24bb
00000280: 872f 5dbd 7171 a23b 43c5 753c f475 cbbd
00000290: 9bd3 af3d d725 8cbd 057c 27bd a639 423d
000002a0: 8fbc 963d 2922 ad3b 6d7c da3d e58e a53c
000002b0: 95b4 53bd 7c79 d93d 7695 533d ac3b b3bd
000002c0: 84a3 18bd ee73 8fbd f1ad bf3d 79a4 523c
000002d0: 47c1 1abe be60 4abd 1e5a b93d 75dd a03c
000002e0: feb2 263d 6671 0e3d 618e 56bc 31e7 66bd
000002f0: 0d14 18bd 8c4a 1bbd 71f3 5fbd 74f6 83bb
00000300: f8ba 583c e4ac 6d3c cef2 9dbb 41c2 fe3b
00000310: 9a1d a8bd 54ea 343d 46ee bdbd 370d 553d
00000320: 2dcd a7bd 7acb 4cbd 815c 98bb 2dec 8fbd
00000330: 879b 8e3d 8869 67bd 51af 3fbd 19d4 4abd
00000340: 425d e03c cb02 033d 8746 5e3d 8501 423d
00000350: c04d 1bbd 1279 b4bc 299b 833d 16ff 90bd
00000360: 28a4 b6bb f9a3 633d 9673 1fbd b749 74bd
00000370: 865f 2e3c 7a74 873d ae34 5bbd ef1d 81bd
00000380: 731c 0cbc 3414 eb3c 7542 c93a b115 c23d
00000390: 6edd 5ebd 1a75 96bd ee88 f23c 3a39 1b3c
000003a0: df40 9e3d b46e 36bd 749a ecbc b683 5bbd
000003b0: 33fd 223d 9563 063e 21c3 d43b 3d8c 83bd
000003c0: ff59 4e3d a7a7 0f3c 86f8 a13c 0a77 78bc
000003d0: 4e42 bd3c 2030 613d 548f ee3c 9230 d6bd
000003e0: e0b2 393d f74e 80bd c7d5 123d 822c d03c
000003f0: 80f7 8ebd 1d20 663d d18f 8bbd aaf8 013d

cnn_branch.4.bias f4 [32]
0.034456886 0.08156086 0.07525451 0.07787987 0.07462705 0.06772315 0.02181591 -0.0069788345
0.0031689834 -0.03463149 0.039154753 0.0024143558 0.019660523 -0.053678986 -0.031377446 0.062475234
0.008105444 0.028757637 -0.07275061 -0.03568541 -0.0021208976 -0.00874462 0.053195458 -0.025148697
0.06954971 -0.016117394 0.032412395 -0.05866902 0.01414445 -0.08124475 -0.071499005 -0.05333377
00000000: aa22 0d3d 6109 a73d 091f 9a3d 7b7f 9f3d
00000010: 11d6 983d 6fb2 8a3d 47b7 b23c b5ae e4bb
00000020: b8ae 4f3b c0d9 0dbd bc60 203d 2b3a 1e3b
00000030: 1b0f a13c 7fde 5bbd a385 00bd 08e6 7f3d
00000040: b2cc 043c 2395 eb3c 46fe 94bd dd2a 12bd
00000050: c2fe 0abb 9845 0fbc 7be3 593d a404 cebc
00000060: 1470 8e3d a008 84bc dcc2 043d ed4e 70bd
00000070: 20be 673c a663 a6bd 126e 92bd 8374 5abd

cnn_branch.5.weight f4 [32]
0.9888722 1.0201707 0.9968805 0.9984851 1.0205369 0.9949392 1.0245178 0.9888742
0.9905335 0.9867632 1.0036036 1.0267953 1.0100931 0.99726814 1.0005919 0.9940915
1.0027487 0.99862295 1.0050303 0.98160034 0.99447244 0.99594176 0.996759 1.0002334
1.0131464 0.9872951 0.9878408 0.9926492 1.0025394 0.9924485 1.001079 1.0042105
00000000: ba26 7d3f f494 823f 8f33 7f3f b89c 7f3f
00000010: f4a0 823f 56b4 7e3f 6623 833f dc26 7d3f
00000020: 9a93 7d3f 839c 7c3f 1576 803f 076e 833f
00000030: bb4a 813f f74c 7f3f 6513 803f c87c 7e3f
00000040: 125a 803f c1a5 7f3f d5a4 803f 294a 7b3f
00000050: bf95 7e3f 0af6 7e3f 992b 7f3f a607 803f
00000060: c8ae 813f 5fbf 7c3f 22e3 7c3f 421e 7e3f
00000070: 3653 803f 1b11 7e3f 5b23 803f f889 803f

cnn_branch.5.bias f4 [32]
-0.00618411 -0.0014977235 0.0016593642 -0.0028975145 0.008321123 0.00428679 -0.006196244 -0.00084789185
-0.0027529595 -0.007052657 -0.008488617 -0.009711054 -5.570909e-05 0.005504304 -0.0042714835 -0.0015452236
-0.012708814 0.01713013 -0.0037372669 -0.0063933143 -0.0055978573 -0.0021542304 0.0011390315 -0.0089964615
-0.0014798263 -0.010572957 0.0030653756 0.0021868173 -0.00628738 -0.008957772 0.000112129834 0.0013860068
00000000: 13a4 cabb 434f c4ba 067f d93a 3ae4 3dbb
00000010: 5255 083c 3378 8c3b dd09 cbbb 0f45 5eba
00000020: ff6a 34bb fa19 e7bb d713 0bbc 1d1b 1fbc
00000030: 2ea9 69b8 735d b43b cdf7 8bbb 1a89 caba
00000040: a138 50bc 7d54 8c3c efec 74bb 027f d1bb
00000050: 3b6e b7bb fd2d 0dbb 8e4b 953a e565 13bc
00000060: bbf6 c1ba 323a 2dbc 78e4 483b b550 0f3b
00000070: 5e06 cebb 9ec3 12bc 3f27 eb38 acaa b53a

cnn_branch.5.running_mean f4 [32]
-0.15417099 -0.032362252 0.18119271 0.4197848 0.13821673 0.16135964 0.11853741 -0.023513254
-0.018295702 -0.008112533 -0.10156387 0.4788935 -0.04209632 -0.05278472 -0.25051782 -0.32303792
0.11352362 0.1930819 -0.2275507 -0.30476102 -0.3152552 -0.5042266 0.20755556 0.38750568
0.6967416 0.39190283 0.3451674 -0.4198772 -0.008324669 -0.6306332 0.04319424 -0.25942323
00000000: 00df 1dbe 488e 04bd 958a 393e 09ee d63e
00000010: b088 0d3e 763b 253e bec3 f23d de9e c0bc
00000020: dee0 95bc 6eea 04bc b800 d0bd 8731 f53e
00000030: 316d 2cbd ca34 58bd df43 80be 3a65 a5be
00000040: 127f e83d 43b7 453e 0d03 69be a309 9cbe
00000050: 2169 a1be ff14 01bf 7289 543e 2567 c63e
00000060: a85d 323f 7da7 c83e c8b9 b03e 25fa d6be
00000070: 3164 08bc 2d71 21bf 72ec 303d 1fd3 84be

cnn_branch.5.running_var f4 [32]
0.23022752 0.14287682 0.1916255 0.31860176 0.1428885 0.17011602 0.3502544 0.23498924
0.16016504 0.17678356 0.059637558 0.5734855 0.24888694 0.15306942 0.20121504 0.3510722
0.2866653 0.4207162 0.17650408 0.2028961 0.14084618 0.28475764 0.24458775 0.39824805
0.837147 0.47567755 0.3645068 0.25573757 0.15025918 0.3074013 0.15867627 0.13631673
00000000: c3c0 6b3e 4d4e 123e 7a39 443e c51f a33e
00000010: 5d51 123e e532 2e3e 8b54 b33e 05a1 703e
00000020: 4e02 243e c006 353e 8346 743d f2cf 123f
00000030: 38dc 7e3e 3bbe 1c3e 510b 4e3e bcbf b33e
00000040: cbc5 923e 1d68 d73e 7cbd 343e ffc3 4f3e
00000050: fb39 103e c1cb 913e 3675 7a3e 2be7 cb3e
00000060: 444f 563f 028c f33e a3a0 ba3e 09f0 823e
00000070: 8bdd 193e b463 9d3e 087c 223e 9d96 0b3e

cnn_branch.8.weight f4 [64, 32, 3, 3]
0.012029808 0.0076651378 0.0040880265 -0.005534238 0.048695058 0.05559256 0.025722403 0.04393766
-0.00542863 -0.02819488 0.0078079435 0.048041843 -0.022736855 -0.056382705 0.02462531 -0.030588634
-0.033754025 0.042964328 -0.0038997158 -0.034300834 -0.036777817 0.049842343 0.038632847 -0.045108024
-0.003912682 0.0022723472 0.023291992 -0.056648057 -0.001276802 0.025071505 0.025978085 0.009685398
-0.027152296 -0.05884847 0.026241552 0.053937424 -0.015459826 -0.036369402 0.0024368768 -0.033666097
-0.025164865 0.0091138175 -0.005219729 -0.0017990052 0.04090892 -0.009386517 0.034008574 -0.01552652
0.039324302 0.017083764 0.05387143 0.013722779 -0.017036729 0.026769677 0.048644707 0.021069199
0.007028038 -0.04262673 0.037741944 -0.0619211 0.05386164 0.027709985 -0.009147449 -0.061119094
0.05355911 0.03854942 0.050033953 0.019466065 0.016449196 -0.019583996 -0.023566222 0.020222353
0.013428464 -0.0004313566 0.016772456 0.019309288 -0.057209626 -0.047301054 -0.010205791 0.036638215
0.033701025 -0.055640794 -0.016440826 0.0038420565 0.018382592 0.046610437 0.0013123957 -0.048899837
0.0067643174 -0.02150284 -0.035427164 0.03379895 -0.012399086 0.025717124 0.05743934 0.0063350922
0.04663305 -0.021681203 0.030414054 -0.004904154 0.03833998 0.0623696 -0.054109905 0.052411057
0.044555947 -0.065131 0.0075990506 -0.052273095 0.01299517 0.014975564 -0.065068975 0.02641129
-0.004574313 0.052506793 0.059185192 0.024224369 0.03778619 0.008579715 0.055495635 -0.013149867
0.010313319 -0.010906654 -0.0056241644 -0.02174123 -0.03087569 0.033615395 0.030822162 -0.026299046
-0.052876078 0.024893444 -0.057689883 -0.009178764 -0.056254704 0.053115655 0.04411799 -0.051458605
-0.04944286 -0.037768144 0.013718102 -0.027328016 -0.01705319 -0.016465012 0.013469393 -0.028326388
0.02792541 -0.04972031 -0.0039368006 0.04976958 -0.025280157 0.04700348 0.037162993 -0.013906046
0.017399466 -0.056595948 0.018135693 0.008181012 0.047119174 -0.024499826 -0.038919117 -0.042826626
-0.060332786 0.006085957 -0.05094343 -0.01141844 -0.031706095 0.010534559 0.02041408 -0.044095796
-0.022393795 -0.013483172 -0.036922127 0.014878918 0.017953163 -0.030950123 0.05333085 0.035908423
-0.017323514 0.015118704 0.0038231327 -0.003476067 -0.03733099 0.050253976 0.028064298 -0.04845188
-0.037925128 0.05519367 0.0081809135 -0.005248656 0.038675345 0.018547246 0.022882754 0.044426452
0.00031299374 0.05630218 -0.0419913 -0.03809123 0.0077861166 -0.0067612375 0.032437827 -0.007881546
0.007877404 -0.009610047 0.04669791 -0.007562235 -0.0017976724 0.048061095 0.056741834 0.04138774
-0.058796406 -0.029517705 -0.030175267 -0.017419321 0.032845125 0.026552787 -0.0015241345 -0.0041055004
0.0072707464 0.042639107 0.030454118 -0.04284153 -0.031536482 0.017795697 -0.0075570066 -0.03780468
-0.06618052 0.0060598557 -0.01368489 -0.03760312 0.009849782 0.053965207 0.040456843 0.040926963
-0.0436265 0.030593254 0.027423475 0.022800714 -0.013728884 -0.004398395 -0.03098511 -0.010360388
-0.010183816 -0.011869598 -0.0523383 0.027295582 -0.03800154 -0.047982957 0.03961696 -0.034949165
0.055703644 0.057054695 -0.0147003075 -0.0062795994 -0.046904396 0.006428502 0.012441724 -0.03296613
00000000: ac18 453c d62b fb3b daf4 853b 8e58 b5bb
00000010: 7874 473d 06b5 633d cab7 d23c faf7 333d
00000020: a6e2 b1bb f3f8 e6bc c7d9 ff3b 86c7 443d
00000030: a442 babc 8df1 66bd 05bb c93c 0495 fabc
00000040: a941 0abd 5dfb 2f3d 6092 7fbb 087f 0cbd
00000050: 56a4 16bd 7c27 4c3d 7a3d 1e3d 31c3 38bd
00000060: f535 80bb a9eb 143b d9ce be3c cb07 68bd
00000070: 5e5a a7ba c262 cd3c fecf d43c 81af 1e3c
00000080: 7e6e debc 180b 71bd 86f8 d63c 7ded 5c3d
00000090: 364b 7dbc 15f8 14bd 02b4 1f3b 76e5 09bd
000000a0: 8c26 cebc 1f52 153c 430a abbb 99cc ebba
000000b0: 1d90 273d e8c9 19bc 934c 0b3d f262 7ebc
000000c0: 8512 213d 40f3 8b3c 4aa8 5c3d 82d5 603c
000000d0: 9c90 8bbc 154c db3c ac3f 473d 5099 ac3c
000000e0: 754b e63b 5e99 2ebd 4c97 1a3d fba0 7dbd
000000f0: 069e 5c3d 0d00 e33c 2fdf 15bc 0458 7abd
00000100: cc60 5b3d ffe5 1d3d 67f0 4c3d 4c77 9f3c
00000110: 77c0 863c 9e6e a0bc f30d c1bc 59a9 a53c
00000120: 0f03 5c3c b427 e2b9 6466 893c 832e 9e3c
00000130: a454 6abd c0be 41bd 3136 27bc f411 163d
00000140: 160a 0a3d 9ae7 63bd e9ae 86bc 03cb 7b3b
00000150: 1797 963c 96ea 3e3d b104 ac3a 324b 48bd
00000160: 35a7 dd3b b926 b0bc 131c 11bd c570 0a3d
00000170: 8925 4bbc b8ac d23c 8345 6b3d 9b96 cf3b
00000180: 4c02 3f3d c79c b1bc e526 f93c 07b3 a0bb
00000190: 620a 1d3d 4477 7f3d 59a2 5dbd faac 563d
000001a0: 4c80 363d 6763 85bd 7501 f93b 501c 56bd
000001b0: b2e9 543c 115c 753c e242 85bd 7d5c d83c
000001c0: 1ee4 95bb 5d11 573d 2c6c 723d 2f72 c63c
000001d0: b1c5 1a3d ef91 0c3c 644f 633d 8a72 57bc
000001e0: 32f9 283c d3b1 32bc e94a b8bb aa1a b2bc
000001f0: 04ef fcbc 4cb0 093d c27e fc3c 1971 d7bc
00000200: 9694 58bd 56ed cb3c 3a4c 6cbd 8762 16bc
00000210: 556b 66bd cd8f 593d 11b5 343d 42c6 52bd
00000220: 9984 4abd c5b2 1abd e4c1 603c 01df dfbc
00000230: 22b3 8bbc a2e1 86bc bbae 5c3c be0c e8bc
00000240: d4c3 e43c 86a7 4bbd 4700 81bb 30db 4b3d
00000250: 5518 cfbc b986 403d 3938 183d 2fd6 63bc
00000260: 5389 8e3c 27d1 67bd 4e91 943c a709 063c
00000270: 0900 413d dcb3 c8bc a769 1fbd f96a 2fbd
00000280: 831f 77bd b56c c73b 0faa 50bd 6914 3bbc
00000290: 40de 01bd 2599 2c3c 6e3b a73c cb9d 34bd
000002a0: 3173 b7bc 86e8 5cbc a83b 17bd b5c6 733c
000002b0: 8312 933c 1d8b fdbc 7371 5a3d b614 133d
000002c0: 0bea 8dbc 71b4 773c 868d 7a3b bace 63bb
000002d0: 61e8 18bd 1dd7 4d3d 19e7 e53c 7b75 46bd
000002e0: 6157 1bbd c212 623d 3d09 063c ebfc abbb
000002f0: 0a6a 1e3d 65f0 973c 9d74 bb3c 83f8 353d
00000300: 4f19 a439 1d9d 663d 12ff 2bbd 8d05 1cbd
00000310: ae22 ff3b 5f8d ddbb 87dd 043d 9a21 01bc
00000320: 3a10 013c 7573 1dbc 4f46 3f3d a0cc f7bb
00000330: e09f ebba b6db 443d 206a 683d 3186 293d
00000340: 80d4 70bd 1dcf f1bc 1f32 f7bc f7b2 8ebc
00000350: 9c88 063d 3b85 d93c 78c5 c7ba 6f87 86bb
00000360: 713f ee3b 58a6 2e3d ea7a f93c 9a7a 2fbd
00000370: 662c 01bd 48c8 913c c4a0 f7bb 15d9 1abd
00000380: a789 87bd c191 c63b 9736 60bc bb05 1abd
00000390: fb60 213c 9f0a 5d3d 13b6 253d 08a3 273d
000003a0: b3b1 32bd b49e fa3c 32a7 e03c 90c8 ba3c
000003b0: 1def 60bc 6920 90bb 7cd4 fdbc 9ebe 29bc
000003c0: 05da 26bc b478 42bc af60 56bd fc9a df3c
000003d0: 81a7 1bbd c789 44bd 6545 223d db26 0fbd
000003e0: 8129 643d 2fb2 693d 8fd9 70bc 19c5 cdbb
000003f0: d31e 40bd 2fa6 d23b 5fd8 4b3c 7e07 07bd

cnn_branch.8.bias f4 [64]
0.031024419 -0.042108994 0.015647816 -0.039413486 0.052471355 -0.04147045 0.053345036 0.02306568
-0.010672264 0.05731972 -0.024108445 -0.010161162 0.012130661 0.036281645 0.05046886 -0.053917058
0.01651677 0.046021316 -0.01688637 0.016601793 -0.0011694185 -0.012483535 -0.005534642 -0.055490885
-0.041329168 0.04229677 0.05947507 -0.0059666345 0.045114726 -0.03786039 0.043367155 0.035584636
0.022940995 -0.00047595476 -0.004302772 0.03218811 -0.010044269 -0.03901635 0.033160347 -0.03996773
-0.026167164 0.05795855 0.02112248 0.03175805 0.03954421 -0.022306662 0.052315973 -0.036175374
0.004264776 -0.049288146 -0.04032897 0.0033765237 -0.00033145008 0.04268004 -0.04612863 0.012579197
-0.0030399708 0.01912645 -0.009909885 0.010032689 0.004966389 -0.050107345 -0.058635257 -0.015461625
00000000: ec26 fe3c 7b7a 2cbd d92f 803c 0970 21bd
00000010: 34ec 563d ebdc 29bd 5380 5a3d 3df4 bc3c
00000020: b8da 2ebc 15c8 6a3d 137f c5bc 017b 26bc
00000030: aebf 463c 109c 143d 6fb8 4e3d 22d8 5cbd
00000040: 2d4e 873c d980 3c3d 4955 8abc 7c00 883c
00000050: 2c47 99ba be87 4cbc f15b b5bb 694a 63bd
00000060: c648 29bd 613f 2d3d 229c 733d c283 c3bb
00000070: 38ca 383d 7f13 1bbd c2a1 313d 32c1 113d
00000080: c1ee bb3c 9189 f9b9 45fe 8cbb aed7 033d
00000090: b890 24bc 9ccf 1fbd 25d3 073d 34b5 23bd
000000a0: 855c d6bc f265 6d3d 0d09 ad3c bb14 023d
000000b0: 1cf9 213d 76bc b6bc 4649 563d a12c 14bd
000000c0: 89bf 8b3b 5ee2 49bd fd2f 25bd ab48 5d3b
000000d0: 7ac6 adb9 44d1 2e3d 60f1 3cbd fa18 4e3c
000000e0: 3f3a 47bb 13af 9c3c 125d 22bc 2660 243c
000000f0: 17bd a23b 5c3d 4dbd 862b 70bd c152 7dbc

cnn_branch.9.weight f4 [64, 5, 5]
0.9999378 0.9999514 1.0000075 1.0005543 0.9999886 0.99971455 0.9997432 0.99995446
1.0000812 1.000057 1.0006671 0.99998313 1.000119 0.999218 1.0018059 0.99941397
1.0002426 1.0000118 1.0000788 0.9999882 0.99997526 1.0000849 1.000753 0.9995734
0.9999962 0.9999829 1.0004395 0.9993502 0.99951464 0.9999515 1.0001489 1.0001193
0.9992449 0.9992706 0.9998445 1.0002056 0.9999777 1.0007882 0.9995067 1.0007812
0.99998444 1.0000427 1.0009061 1.0001413 0.9998965 1.0000216 1.0005282 0.9993749
1.0010293 0.99903834 0.9997689 0.9999229 0.9999847 1.000149 1.0001373 0.9995802
0.99901956 1.0003374 0.99971545 0.9999705 1.0001209 0.99983877 1.0018233 0.9992698
0.9992896 0.99999 1.0000025 1.0004942 0.99945045 1.0014274 0.9998104 1.0004978
0.99969125 0.99927723 1.0012101 0.99988043 0.99998957 1.000118 1.0003546 0.9999134
1.0000104 1.0001428 0.99974877 0.999999 1.0003772 0.99993634 1.0000901 1.0005101
1.0055779 1.0008165 1.0000192 0.99993485 1.0014594 0.99988616 1.000082 1.0004258
1.0005695 1.0015583 1.0005237 1.0006723 1.0000333 1.000048 1.000094 0.9998798
0.9999048 1.0000447 0.99977857 0.99941784 0.9999297 1.0000335 0.99995637 0.9991111
0.9995965 0.99970865 1.0034269 1.0003569 0.99971104 1.0000708 1.0007108 1.0003428
0.999631 0.99989927 1.0002384 0.999652 1.0002292 0.9999321 1.0000339 1.0003939
0.999915 0.9996995 0.9999445 0.99954593 0.9994846 1.0002109 1.000125 0.99990284
1.0020115 0.99851227 1.0001849 1.0000533 1.0001488 1.0000381 0.99939954 0.998365
1.0003084 1.0001881 1.0004754 0.9998275 1.0007879 1.0005909 0.9999573 0.9998644
1.0002811 1.000308 1.0005121 0.9993514 0.9997439 0.99993914 0.99830115 1.0004627
1.000275 0.999808 0.9998925 0.99945486 0.99873096 0.99959946 1.0003098 1.0000592
1.0004534 0.99886775 0.99992305 1.0002863 1.0002812 0.99986506 0.99946445 0.9995951
0.99982244 0.9998115 0.99989945 0.9988401 0.99989563 1.00115 0.9998525 0.999283
0.99855244 1.0001223 1.0001134 0.99994797 1.0002941 1.0028988 0.9999716 1.0002875
0.99996394 1.0007806 1.0000633 0.99946725 0.99978065 1.0010804 1.0000085 0.9999668
0.99997526 0.99994546 0.9999596 0.999903 1.0002055 0.99984753 1.0008122 1.0002831
0.99994063 1.0005124 0.9998141 1.0000675 1.000296 0.9999676 0.9999303 1.0000033
0.99982864 1.0037931 0.99992114 0.9998542 1.0001291 0.99982435 1.0003781 0.999887
1.0006076 0.9997796 0.9995685 0.99995846 0.9997093 0.9996647 0.99992853 1.000029
0.9999519 0.9998312 0.9998382 1.0006264 1.0013283 1.0000446 0.99726194 1.0009191
0.99994636 1.0001075 0.9996466 0.9991639 0.9999306 1.0001862 0.99942064 0.99993867
0.99990857 1.0007654 1.0000129 0.9992856 0.99950683 0.99986595 0.99950916 0.99994594
00000000: ecfb 7f3f d1fc 7f3f 3f00 803f 2a12 803f
00000010: 41ff 7f3f 4bed 7f3f 2cef 7f3f 04fd 7f3f
00000020: a902 803f de01 803f dc15 803f e5fe 7f3f
00000030: e603 803f c0cc 7f3f 2d3b 803f 98d9 7f3f
00000040: f307 803f 6300 803f 9502 803f 3aff 7f3f
00000050: 61fe 7f3f c802 803f ad18 803f 0be4 7f3f
00000060: c0ff 7f3f e1fe 7f3f 670e 803f 6ad5 7f3f
00000070: 31e0 7f3f d2fc 7f3f e104 803f e903 803f
00000080: 84ce 7f3f 33d0 7f3f cff5 7f3f bd06 803f
00000090: 8afe 7f3f d419 803f acdf 7f3f 9919 803f
000000a0: fbfe 7f3f 6601 803f b11d 803f a104 803f
000000b0: 38f9 7f3f b500 803f 4f11 803f 09d7 7f3f
000000c0: ba21 803f fac0 7f3f dbf0 7f3f f2fa 7f3f
000000d0: fffe 7f3f e204 803f 8004 803f 7de4 7f3f
000000e0: bfbf 7f3f 0e0b 803f 5aed 7f3f 11fe 7f3f
000000f0: f603 803f 6ff5 7f3f bf3b 803f 25d0 7f3f
00000100: 71d1 7f3f 58ff 7f3f 1500 803f 3210 803f
00000110: fcdb 7f3f c62e 803f 93f3 7f3f 5010 803f
00000120: c4eb 7f3f a2d0 7f3f a727 803f 2af8 7f3f
00000130: 51ff 7f3f de03 803f 9f0b 803f 53fa 7f3f
00000140: 5700 803f ae04 803f 89ef 7f3f efff 7f3f
00000150: 5c0c 803f d4fb 7f3f f402 803f b710 803f
00000160: c7b6 803f c11a 803f a100 803f bbfb 7f3f
00000170: d22f 803f 8af8 7f3f b002 803f f40d 803f
00000180: a912 803f 1033 803f 2911 803f 0816 803f
00000190: 1701 803f 9301 803f 1503 803f 1ff8 7f3f
000001a0: c3f9 7f3f 7701 803f 7df1 7f3f d9d9 7f3f
000001b0: 65fb 7f3f 1901 803f 24fd 7f3f bfc5 7f3f
000001c0: 8ee5 7f3f e8ec 7f3f 4b70 803f b20b 803f
000001d0: 10ed 7f3f 5202 803f 4b17 803f 3c0b 803f
000001e0: d1e7 7f3f 66f9 7f3f d007 803f 32e9 7f3f
000001f0: 8307 803f 8dfb 7f3f 1c01 803f e80c 803f
00000200: 6efa 7f3f 4eec 7f3f 5dfc 7f3f 3ee2 7f3f
00000210: 39de 7f3f e906 803f 1904 803f a2f9 7f3f
00000220: ea41 803f 809e 7f3f 0f06 803f bf01 803f
00000230: e004 803f 4001 803f a6d8 7f3f d994 7f3f
00000240: 1b0a 803f 2a06 803f 940f 803f b2f4 7f3f
00000250: d119 803f 5d13 803f 34fd 7f3f 1df7 7f3f
00000260: 3609 803f 180a 803f c810 803f 7ed5 7f3f
00000270: 37ef 7f3f 03fc 7f3f aa90 7f3f 290f 803f
00000280: 0309 803f 6bf3 7f3f f4f8 7f3f 46dc 7f3f
00000290: d5ac 7f3f c0e5 7f3f 270a 803f f101 803f
000002a0: db0e 803f ccb5 7f3f f5fa 7f3f 6209 803f
000002b0: 3709 803f 28f7 7f3f e7dc 7f3f 77e5 7f3f
000002c0: 5df4 7f3f a5f3 7f3f 69f9 7f3f fcb3 7f3f
000002d0: 29f9 7f3f af25 803f 55f6 7f3f 03d1 7f3f
000002e0: 22a1 7f3f 0204 803f b703 803f 97fc 7f3f
000002f0: a309 803f fd5e 803f 24fe 7f3f 6c09 803f
00000300: a3fd 7f3f 9419 803f 1302 803f 16dd 7f3f
00000310: a0f1 7f3f 6723 803f 4700 803f d3fd 7f3f
00000320: 61fe 7f3f 6dfc 7f3f 5afd 7f3f a5f9 7f3f
00000330: bc06 803f 02f6 7f3f 9d1a 803f 4709 803f
00000340: 1cfc 7f3f ca10 803f d1f3 7f3f 3602 803f
00000350: b309 803f e0fd 7f3f 6ffb 7f3f 1c00 803f
00000360: c5f4 7f3f 4b7c 803f d5fa 7f3f 72f6 7f3f
00000370: 3b04 803f 7df4 7f3f 640c 803f 98f8 7f3f
00000380: e913 803f 8ef1 7f3f b9e3 7f3f 47fd 7f3f
00000390: f3ec 7f3f 07ea 7f3f 51fb 7f3f f300 803f
000003a0: d9fc 7f3f f0f4 7f3f 65f5 7f3f 8714 803f
000003b0: 872b 803f 7601 803f 8f4c 7f3f 1e1e 803f
000003c0: 7cfc 7f3f 8603 803f d7e8 7f3f 35c9 7f3f
000003d0: 74fb 7f3f 1a06 803f 08da 7f3f fbfb 7f3f
000003e0: 02fa 7f3f 1519 803f 6c00 803f 2ed1 7f3f
000003f0: aedf 7f3f 37f7 7f3f d5df 7f3f 75fc 7f3f

cnn_branch.9.bias f4 [64, 5, 5]
4.925401e-06 2.47997e-05 2.5737523e-05 2.946615e-05 3.742481e-05 -3.9569597e-05 2.2130398e-05 1.6831298e-05
1.4890252e-05 -4.680652e-05 1.114211e-05 -0.00021237135 -5.704076e-05 0.0008222099 -0.0011001494 -7.080009e-05
-6.0305592e-05 0.00010464944 0.00015600311 4.4474873e-06 1.8415816e-05 2.916104e-05 -0.00017239088 3.088835e-05
7.5805445e-05 -5.38963e-07 -0.00027913981 -7.4919603e-06 -0.0003592634 -2.8142997e-05 -6.0728882e-05 -5.4397908e-05
5.0141087e-05 -0.00020730951 -3.506981e-05 3.3759057e-05 4.340548e-06 -0.0005879196 4.6286852e-05 0.00013728366
4.592557e-05 4.21739e-05 0.00014144425 4.556413e-05 -3.55432e-05 -9.287317e-06 0.00012864104 4.6558916e-06
0.00042617484 6.7143475e-05 1.717586e-05 2.4987678e-05 2.5609772e-05 0.00020458444 4.36007e-05 5.676943e-05
-0.00029561532 -0.00015039799 -9.663355e-05 -3.1046362e-05 4.6290857e-05 6.279046e-05 -0.00059863675 -0.00036493034
-0.00022277841 1.8422334e-05 -6.9303405e-06 0.00018212872 6.7184745e-05 -0.0005049492 1.2580403e-05 5.963336e-05
9.425782e-06 0.00018079803 -0.00024531578 -7.479573e-05 -6.0724838e-06 2.2115015e-05 3.9899787e-05 4.80966e-06
-1.9432071e-05 0.000115925526 0.00017267051 -1.8240053e-05 -6.570378e-05 4.7655183e-05 -3.4688845e-05 -0.0006874488
0.0011302864 -0.00043938606 3.2436382e-08 -0.0018055476 -0.0009060352 -6.0696824e-05 8.128877e-06 3.7001482e-05
0.00017768441 -0.00040775645 -0.00012936449 -7.422241e-05 -1.0670444e-05 -1.9130037e-05 -8.832877e-06 0.00014111122
2.5510522e-05 -1.8444521e-06 -3.0518546e-05 0.00013632105 0.00067255105 4.0688734e-05 -3.319209e-05 -0.00036920176
-0.00038709052 9.349177e-05 0.0004510758 0.0004029721 8.9307076e-05 -6.771165e-05 -9.22503e-05 -0.00027278365
-1.578385e-06 7.7409764e-05 -0.00012153184 0.00023991846 1.3956614e-05 -6.517846e-05 1.292383e-05 1.9753104e-05
-1.2978595e-05 7.297991e-05 5.2200567e-06 0.0002948282 -0.00060423143 -0.00012484875 -2.1386804e-05 5.9017298e-06
0.00010070329 0.00089907495 0.00019231322 -0.00014862102 -4.1449945e-05 0.00015938698 0.00014131467 4.8408547e-05
-5.2009804e-05 1.3194549e-05 8.9894515e-05 -6.001808e-06 4.2677184e-05 -7.470914e-05 6.722972e-06 -2.677029e-06
0.0001188551 -4.3852662e-05 -4.1881063e-05 1.2987327e-05 -0.00020225125 0.00016969863 0.00041122895 -0.000110732086
0.00023611037 -0.00030787464 3.1937492e-05 0.00031417728 -0.000723662 -0.0002432979 5.9825354e-05 5.6461755e-05
0.00045095597 6.847438e-05 -0.00010730396 -3.182953e-05 4.928971e-05 0.0001645409 -4.485176e-05 0.00015406533
-1.1730024e-06 -3.6430676e-05 -9.683741e-05 -0.00025078072 -1.8592109e-05 -0.00047532993 0.00012778273 -0.00068306935
-0.00016987127 -0.00014422333 -0.00012037941 -5.6937166e-05 -9.469583e-05 -6.2248764e-05 4.9183313e-05 -7.509108e-05
0.00028237203 -0.00065606594 6.347943e-05 -0.00017153555 -0.00012287027 -0.000292346 6.281243e-05 -6.581617e-05
2.7772328e-06 1.7784594e-05 -8.9210305e-05 -3.823458e-05 0.00024179887 -0.00017261975 4.3732864e-05 -0.00065272197
4.124316e-05 -0.00048403235 -2.0092477e-05 -3.250631e-05 -0.00019556802 0.000114850845 -0.000110755456 -9.794204e-05
0.00026390832 0.001321281 5.967897e-05 -0.00057779637 1.1094372e-05 -0.00049530086 -8.090223e-05 6.926285e-05
4.1752704e-05 0.00018772921 0.0002659817 -0.00019473874 0.000100324374 9.294998e-05 1.0635622e-05 -9.602945e-05
-3.683592e-05 -3.8648537e-05 0.000104021965 -9.386462e-05 -0.0003661805 0.0007407416 -0.0002780713 -0.00020361277
-7.626734e-06 -0.000109738496 0.0002489916 -0.0001962943 6.356769e-05 -1.8522043e-05 -0.00016565199 0.000106202075
-2.5109146e-05 2.111319e-05 -3.3678357e-06 -1.0126622e-05 -1.9179504e-05 -3.16919e-05 -1.8374674e-05 1.6898412e-05
00000000: df44 a536 f308 d037 e9e6 d737 132e f737
00000010: 95f8 1c38 88f7 25b8 aba4 b937 f030 8d37
00000020: 25d1 7937 1e52 44b8 00ef 3a37 00b0 5eb9
00000030: 0d3f 6fb8 9389 573a e332 90ba 827a 94b8
00000040: a3f0 7cb8 3e77 db38 c494 2339 a03b 9536
00000050: aa7b 9a37 db9e f437 d3c3 34b9 1d8e 0138
00000060: bdf9 9e38 41ad 10b5 8359 92b9 7363 fbb6
00000070: 845b bcb9 a014 ecb7 24b7 7eb8 4f29 64b8
00000080: 954e 5238 3961 59b9 ec17 13b8 8398 0d38
00000090: 06a5 9136 9e1e 1aba 2124 4238 cdf3 0f39
000000a0: 35a0 4038 e1e3 3038 a750 1439 1d1c 3f38
000000b0: 3814 15b8 b9d0 1bb7 d1e3 0639 ce39 9c36
000000c0: 3870 df39 61cf 8c38 e114 9037 a19c d137
000000d0: 91d4 d637 b885 5639 e5df 3638 b61b 6e38
000000e0: d1fc 9ab9 27b4 1db9 bea7 cab8 c737 02b8
000000f0: 6e28 4238 5fae 8338 d5ed 1cba 1f54 bfb9
00000100: a099 69b9 a989 9a37 2c8b e8b6 cef9 3e39
00000110: 89e5 8c38 915e 04ba 6b10 5337 d51e 7a38
00000120: 6d23 1e37 9a94 3d39 ba9d 80b9 a7db 9cb8
00000130: 3dc2 cbb6 a283 b937 125a 2738 aa62 a136
00000140: 0e02 a3b7 0b1d f338 e30e 3539 3702 99b7
00000150: 73ca 89b8 5de1 4738 dd7e 11b8 e835 34ba
00000160: 1e26 943a 665d e6b9 2e50 0b33 20a8 ecba
00000170: fe82 6dba b894 7eb8 4361 0837 0a32 1b38
00000180: cc50 3a39 25c8 d5b9 04a6 07b9 daa7 9bb8
00000190: 3505 33b7 7179 a0b7 eb30 14b7 41f7 1339
000001a0: 6eff d537 e48e f7b5 0a01 00b8 67f1 0e39
000001b0: 234e 303a 32a9 2a38 bc37 0bb8 6c91 c1b9
000001c0: 69f2 cab9 0311 c438 5e7e ec39 0046 d339
000001d0: 5f4a bb38 6a00 8eb8 8176 c1b8 6704 8fb9
000001e0: e5d8 d3b5 0d57 a238 e9de feb8 9f92 7b39
000001f0: 3327 6a37 6bb0 88b8 6dd3 5837 78b3 a537
00000200: a4be 59b7 ca0c 9938 f227 af36 2c93 9a39
00000210: 4965 1eba d5e9 02b9 d067 b3b7 7907 c636
00000220: ab30 d338 e6af 6b3a b0a7 4939 27d7 1bb9
00000230: 8ada 2db8 1e21 2739 de2d 1439 480a 4b38
00000240: 1a25 5ab8 285e 5d37 c085 bc38 2363 c9b6
00000250: 4700 3338 2aad 9cb8 e495 e136 02a7 33b6
00000260: d941 f938 70ee 37b8 73a9 2fb8 25e4 5937
00000270: 6813 54b9 21f1 3139 379a d739 d638 e8b8
00000280: 6594 7739 3c6a a1b9 9ff4 0538 29b8 a439
00000290: 22b4 3dba c81d 7fb9 fcec 7a38 59d1 6c38
000002a0: 496e ec39 e799 8f38 6008 e1b8 b380 05b8
000002b0: 6cbc 4e38 9d88 2c39 361f 3cb8 998c 2139
000002c0: 0e70 9db5 24cd 18b8 3015 cbb8 387b 83b9
000002d0: 40f6 9bb7 b435 f9b9 6afd 0539 0210 33ba
000002e0: 791f 32b9 a83a 17b9 3474 fcb8 d1cf 6eb8
000002f0: 7097 c6b8 8d8b 82b8 2e4a 4e38 377a 9db8
00000300: 550b 9439 d7fb 2bba 4220 8538 39de 33b9
00000310: bdd6 00b9 0446 99b9 2bba 8338 ca06 8ab8
00000320: 7f60 3a36 2030 9537 6b16 bbb8 115e 20b8
00000330: 648b 7d39 4301 35b9 ce6d 3738 6e1b 2bba
00000340: 81fc 2c38 b9c5 fdb9 448c a8b7 6257 08b8
00000350: 6411 4db9 14dc f038 6245 e8b8 3b66 cdb8
00000360: 2d5d 8a39 d52e ad3a ce4f 7a38 4277 17ba
00000370: f721 3a37 14d7 01ba 0eaa a9b8 3641 9138
00000380: a01f 2f38 2dd9 4439 7673 8b39 c832 4cb9
00000390: 3d65 d238 24ee c238 a66f 3237 6b63 c9b8
000003a0: 4580 1ab8 8d1a 22b8 5e26 da38 2fd9 c4b8
000003b0: eafb bfb9 542e 423a 19ca 91b9 e380 55b9
000003c0: 25e9 ffb6 6823 e6b8 168b 8239 5ad4 4db9
000003d0: a54f 8538 c95f 9bb7 deb2 2db9 ceb8 de38
000003e0: 7ba1 d2b7 3b1c b137 fa02 62b6 83e5 29b7
000003f0: ace3 a0b7 ebec 04b8 5023 9ab7 10c1 8d37

fc.0.weight f4 [1, 1600]
-0.024223138 0.00043059106 0.01498291 0.04579982 0.028691404 -0.013208345 -0.0046404502 0.025827937
0.03253367 -0.029672528 0.05960874 0.03760432 -0.04536468 -0.049772043 0.14918151 -0.011735463
0.047263257 0.020782797 0.009780594 0.006693428 0.006753783 0.026370715 -0.08180048 -0.069836766
0.06847449 -0.0068914294 -0.0569702 -0.00057620375 0.0037124613 -0.0011891895 0.032700326 -0.040143244
0.020564843 0.016611584 0.009127843 0.0366881 -0.023150846 0.13321735 -0.0065076095 0.0535458
0.01824135 0.009032641 0.122253194 0.038502894 -0.0064451853 0.013826289 -0.07903975 -0.116161704
-0.15225169 -0.014163338 -0.016222194 0.0071219117 0.009640244 0.046776414 0.029385822 0.010059453
-0.046037883 -0.06923389 0.028126584 -0.008212916 0.038047373 0.0005380695 -0.15888898 -0.027561262
-0.056459844 0.01286696 0.00765586 0.08038415 0.012328952 -0.089822754 -0.0069821 0.045721896
0.019090662 0.01839633 -0.08112348 0.016898835 -0.008550524 -0.025187206 -0.04641477 0.018157845
-0.01198734 0.030023923 0.028818762 0.015760338 0.03771966 -0.02393951 0.011554338 -0.02767808
0.24422613 -0.07730372 -0.017228706 -0.12450821 -0.12497939 0.016576624 0.015249804 0.042753138
0.08711557 -0.10730576 -0.0715748 0.082943976 0.023919282 0.014194122 0.025839448 0.030771947
0.0016845614 0.019737156 0.06387516 -0.0015545188 -0.019267408 0.017341826 -0.021641944 0.0413103
-0.04769678 -0.0064726043 0.13638549 -0.06029706 0.014950882 0.036130097 0.052422594 -0.073141165
-0.024027994 0.0062706238 -0.03740889 0.024839891 -0.03062933 0.017553477 0.018027471 0.040191878
-0.023963263 -0.015583119 -5.5163662e-05 -0.04500773 -0.060122427 0.03760281 0.027832862 -0.011779097
-0.13641952 0.19455256 0.06420431 -0.031929743 0.042279527 0.0035800945 -0.010721142 0.06386759
-0.03289943 0.02598256 0.046476994 -0.006791341 -0.054404024 -0.05285386 -0.014129676 0.0055826013
-0.040381614 -0.035457406 0.043879747 0.0073331078 0.035818655 -0.05292092 -0.08145461 0.04533936
-0.04889354 0.022010902 -0.01939373 -0.084934995 -0.11133029 -0.024565596 -0.037393868 -0.009830402
0.023267746 -0.07955627 -0.03323342 0.045660768 0.13430113 0.0037450965 0.0042494815 -0.005475318
0.008908544 0.0049983556 0.00850543 0.039612003 0.0075967317 -0.08054213 0.029533397 -0.06289214
0.09360209 -0.032798253 -0.016635993 0.046073534 0.059169527 0.14241901 0.03576568 0.02889142
0.015116551 -0.08145376 0.042190786 -0.00490499 -0.014867824 -0.07533651 0.020027898 -0.03574359
-0.002879438 0.028433658 -0.021852437 0.0026163848 0.052139148 0.010780668 0.06950756 0.025433056
0.101976305 -0.1103166 0.01326621 0.023306092 -0.010701965 -0.005418084 0.006004414 -0.022330951
-0.04234424 0.22148262 -0.011344614 -0.059022546 -0.027304329 -0.044175513 -0.041781876 0.019951127
0.067502506 -0.0006042387 -0.00068317517 -0.037010316 -0.0065105325 -0.025169484 -0.012380919 -0.02635079
0.0142833525 0.014485578 0.046780027 0.0644964 0.096437804 0.102990344 -0.1257606 -0.074237354
-0.009024874 0.016256094 0.00045676262 -0.07611888 0.05944827 0.027161129 0.029307447 -0.034821533
0.012509885 0.053347297 -0.018142128 -0.020793881 -0.04211642 0.012544976 0.018894508 -0.0022877674
00000000: 9a6f c6bc f4c0 e139 e17a 753c 9898 3b3d
00000010: 3c0a eb3c d067 58bc eb0e 98bb 1c95 d33c
00000020: 0742 053d cd13 f3bc 4b28 743d fd06 1a3d
00000030: 51d0 39bd c5dd 4bbd 0ac3 183e 1946 40bc
00000040: 1e97 413d af40 aa3c c93e 203c 8b54 db3b
00000050: d74e dd3b 6607 d83c 0387 a7bd 9406 8fbd
00000060: 5a3c 8c3d 80d1 e1bb 9659 69bd 610c 17ba
00000070: c44c 733b 94de 9bba c7f0 053d 3e6d 24bd
00000080: 9a77 a83c 0415 883c f38c 153c 4346 163d
00000090: d8a6 bdbc 216a 083e c93d d5bb d752 5b3d
000000a0: e26e 953c a4fd 133c e25f fa3d 36b5 1d3d
000000b0: 2232 d3bb a987 623c 98df a1bd 30e6 edbd
000000c0: dee7 1bbe 580d 68bc 68e4 84bc ed5e e93b
000000d0: 1df2 1d3c a098 3f3d 89ba f03c 67d0 243c
000000e0: 3892 3cbd 7fca 8dbd b969 e63c 778f 06bc
000000f0: 90d7 1b3d 3c0d 0d3a cbb3 22be 28c8 e1bc
00000100: 7042 67bd f1cf 523c 02de fa3b 72a0 a43d
00000110: 5fff 493c fef4 b7bd 1aca e4bb e246 3b3d
00000120: 0564 9c3c e6b3 963c 1124 a6bd 6d6f 8a3c
00000130: 7f17 0cbc 6655 cebc 6a1d 3ebd c3bf 943c
00000140: 8c66 44bc bbf4 f53c 5315 ec3c d31b 813c
00000150: ee7f 1a3d cb1c c4bc 684e 3d3c 24bd e2bc
00000160: 6a16 7a3e 6a51 9ebd 3723 8dbc 29fe febd
00000170: 32f5 ffbd b3cb 873c 50da 793c ea1d 2f3d
00000180: a669 b23d 1fc3 dbbd cf95 92bd 88de a93d
00000190: 5ff2 c33c 768e 683c 40ad d33c 7315 fc3c
000001a0: 80cc dc3a d1af a13c fbd0 823d ffc0 cbba
000001b0: afd6 9dbc 7210 8e3c 724a b1bc fd34 293d
000001c0: b35d 43bd 2418 d4bb a3a8 0b3e 0dfa 76bd
000001d0: 8bf4 743c 27fd 133d 13b9 563d 09cb 95bd
000001e0: 5bd6 c4bc ce79 cd3b 103a 19bd 077d cb3c
000001f0: 5cea fabc 4fcc 8f3c 59ae 933c 3da0 243d
00000200: 9b4e c4bc 5750 7fbc 885f 67b8 075a 38bd
00000210: ef42 76bd 6705 1a3d be01 e43c 1dfd 40bc
00000220: 8fb1 0bbe c938 473e 8d7d 833d c3c8 02bd
00000230: 4c2d 2d3d 05a0 6a3b bba7 2fbc 03cd 823d
00000240: 8dc1 06bd 61d9 d43c a95e 3e3d e689 debb
00000250: c1d6 5ebd 4a7d 58bd 2880 67bc 41ee b63b
00000260: 3167 25bd c93b 11bd 40bb 333d 914a f03b
00000270: 95b6 123d 9bc3 58bd add1 a6bd c4b5 393d
00000280: 9844 48bd 3550 b43c 9adf 9ebc 66f2 adbd
00000290: 2301 e4bd ca3d c9bc 502a 19bd b20f 21bc
000002a0: 009c be3c 66ee a2bd c41f 08bd c906 3b3d
000002b0: 3c86 093e 4b70 753b 3c3f 8b3b 4c6a b3bb
000002c0: 24f5 113c 3fc9 a33b 5c5a 0b3c 3240 223d
000002d0: 01ee f83b 46f3 a4bd 06f0 f13c 98cd 80bd
000002e0: 74b2 bf3d 7657 06bd 3548 88bc 9ab7 3c3d
000002f0: bf5b 723d 4ad6 113e 097f 123d b3ad ec3c
00000300: 69ab 773c 3bd1 a6bd 3fd0 2c3d 0aba a0bb
00000310: 2c98 73bc 074a 9abd 8c11 a43c df67 12bd
00000320: f4b4 3cbb b4ed e83c e203 b3bc a777 2b3b
00000330: dc8f 553d 66a1 303c fb59 8e3d fc58 d03c
00000340: f4d8 d03d abed e1bd 855a 593c 6bec be3c
00000350: 4b57 2fbc 2f8a b1bb adc0 c43b 66ef b6bc
00000360: 2771 2dbd 57cc 623e c3de 39bc a0c1 71bd
00000370: 54ad dfbc 62f1 34bd 7923 2bbd 8c70 a33c
00000380: c13e 8a3d c665 1eba 1c17 33ba 2198 17bd
00000390: 4e56 d5bb 3c30 cebc 57d9 4abc 9ddd d7bc
000003a0: b904 6a3c eb54 6d3c 6a9c 3f3d b016 843d
000003b0: 2f81 c53d 9aec d23d 63c7 00be c109 98bd
000003c0: 11dd 13bc 802b 853c a479 ef39 37e4 9bbd
000003d0: 0780 733d 0481 de3c 2c16 f03c 06a1 0ebd
000003e0: 43f6 4c3c b282 5a3d cd9e 94bc ee57 aabc
000003f0: 4482 2cbd 7189 4d3c a8c8 9a3c 5eee 15bb
